p1_navigation/checkpoint.pth (torch_old, 28415 bytes, 6 tensors)

fc1.weight f4 [64, 37]
00000000: 0965 3b3d 51e1 e53d ae0c ccbd ba07 83be
00000010: 434e 6abd 2145 d03b f06d c9bd 1f50 923e
00000020: 7b38 b4bd 7bb3 953c c1be a1bd 392c 9bba
00000030: 3940 8cbd ea12 59be b2e8 fcbd aba8 713d
00000040: bca2 d33d 1a79 ebbd 81d3 373e aba5 f2be
00000050: c352 fd3c 9959 b63e 2b17 16be 535d df3d
00000060: eb48 47be 2b93 7f3d 212a 223e 6c08 b9bd
00000070: 36fb dabe 13b2 b1be 0381 bfbd 5a0e 493e
00000080: 7580 06be bdca 423d e38a 3fbe 68ba 0d3d
00000090: d6e7 d5bc 007d 833d d7fa 183e dcde 9c3d
000000a0: 7ec4 b63d ca30 283d 00fb c83d 9919 2dbf
000000b0: 1733 bbbb 155b dcbe 2921 acbf ff06 8d3d
000000c0: f2c7 0abe 4622 ea3c 41bc 4d3e 349a d63d
000000d0: fcb3 803d 738b 8b3d 4219 a5bb 2eb1 7d3d
000000e0: e6ff b2bc 07c9 87bd 19ad b6bd a672 13be
000000f0: 21ed b43a 1edb 523e 91dd 66bd 39dd bd3d
00000100: 0523 a1bc f250 25bd f180 333e 9358 103c
00000110: 5a3b df3d f1fd 4f3d 15f7 233e 5ff1 093e
00000120: 282a 39bd 65dc a53b ae42 b33d a519 a93c
00000130: 335e cb3d 2f97 023d 805b 87bd 6628 13bf
00000140: 0b45 b13c 8c54 fc3e 68b9 bb3d 3641 aebe
00000150: 1097 1cbe faf3 a53d d6cf 9d3d c6bd 42bd
00000160: 5603 fe3d a778 d4bc e62e 973c bc44 e63d
00000170: cd55 373e 5992 043e d55d 0ebe d9e5 c43c
00000180: b456 293e 03ce 1ebe b836 b4bd 19a7 f3bd
00000190: 697d b63d 5d39 683e fb31 ac3d ac49 45be
000001a0: 167f 48be b09a 2cbc 74be d639 cef8 08be
000001b0: a392 003e 792f c9bb c538 ff3a ace1 3fbd
000001c0: e765 bfbe 8f9f 823e fcae 5ebe bdff 16bf
000001d0: 4150 5fbd 53e1 103e 4066 13be 94eb 44be
000001e0: 5965 653e 79b0 1a3e f90b d5be 43fb 83bb
000001f0: cfea afbe b236 42be 0757 d7bd 08fd 093e
00000200: 29e8 36be b938 77be 7bb8 f0bd 892c 483e
00000210: c55d c3be 4b98 48be c519 3cbe 6905 1c3d
00000220: 20cc 23be bf7d 69bd 6f50 4abe c92a 433e
00000230: 4ec0 9fbc 9fe0 a5bd b544 b93e 0210 35bd
00000240: b5dd 0cbf 5e0f 3d3d 6baf 943d 3e7b 0a3c
00000250: b251 b7bb 6ac3 93be f73d 57be f395 26be
00000260: 4500 69be 8a05 ea3d e160 59be fce0 10be
00000270: 7985 0d3e 09a1 80be 61a5 d1bb dbf6 0e3c
00000280: 4fc9 7c3d bdee aebe 9349 32be 2f41 a53d
00000290: 5121 7bbe 31ee 23be 5093 55be 90a5 b6bb
000002a0: 43e3 43be 0312 20bd acca 1c3e e7bd 7bbd
000002b0: db33 003e 7542 2c3e 00fa d7be eaff 54bd
000002c0: 5c21 903d 3a06 fbbc c19c 933b bb12 b5bc
000002d0: dd66 883d 69a5 9dbd fd72 d9bc e986 c03c
000002e0: 62ed 1f3c d2fe f5bd a260 983c ba62 7f3b
000002f0: 03ee a73d 3fc2 e13d ae99 993e 1662 f03a
00000300: df9a bfbe 5a93 d3be c39a b8bf 302c f5bd
00000310: 382a c0bc eb13 98bd 7251 373d d656 ad3d
00000320: 13f1 9ebd f05b f73d 220e f3bc ec1e 31bd
00000330: 6a1e 38bd a63c f23d 8c93 df3c 8e5c 993c
00000340: fa5d b73d f15d 883d 2378 4cbc 223f 883c
00000350: 08ca 063d 13fd 893c d089 703e 74d1 453d
00000360: 879f b2bd 2736 c1bc 20b2 873d 9b40 59be
00000370: 39be 94bc 0340 ce3c 193e 66be 8baa bdbd
00000380: 8762 5fbc 6085 df3d 921f 7f3b e660 c2bd
00000390: 4d93 1ebe f618 0bbe ffed 3d3e bc34 803e
000003a0: f31f 5bbe 4ec8 a53e b8e0 923d 5799 fdbe
000003b0: 1561 00bb 78e9 dbbd 7ea6 5fbe af22 ee3c
000003c0: f807 cb3d a104 a53d 4a19 c8bd 80f1 3cbe
000003d0: a816 6abd e430 753e 9563 fb3d 97f3 77be
000003e0: 54ab 2cbd 904f 753d 6403 d53d 29bb 39be
000003f0: d29e 4f3e 03ec 0bbe afcc cabd d48d 8bbe
0.04575065 0.11224616 -0.09963356 -0.25591832 -0.057203542 0.006355897 -0.09835422 0.28576753
-0.08799835 0.01827406 -0.078977115 -0.0011838741 -0.06848187 -0.21198621 -0.123490706 0.058998745
0.103337735 -0.11497708 0.17951776 -0.4739202 0.030923253 0.35615233 -0.14657275 0.10906472
-0.1946141 0.06239621 0.15836383 -0.090348095 -0.42769784 -0.34706172 -0.09350779 0.19634381
-0.1313494 0.047556628 -0.18705325 0.0346016 -0.026111525 0.06420326 0.14939438 0.076596946
0.08924197 0.041062154 0.098134995 -0.67617184 -0.0057128775 -0.4303824 -1.344762 0.068861
-0.13552836 0.028580796 0.20091344 0.10478631 0.06284329 0.06813707 -0.0050384114 0.06193655
-0.021850538 -0.0663014 -0.089197345 -0.14399204 0.001380358 0.20591399 -0.056363646 0.092707105
-0.019670019 -0.0403604 0.17529656 0.00881018 0.10899992 0.050779287 0.16012223 0.13470982
-0.04520622 0.0050616735 0.087529525 0.020642111 0.099300765 0.03188246 -0.06609249 -0.5748352
0.021639368 0.49283254 0.09166223 -0.34034127 -0.15292001 0.081031755 0.07705657 -0.047544263
0.1240298 -0.025936438 0.01845498 0.11243579 0.17903824 0.12946452 -0.13902982 0.024035381
0.16536981 -0.15508275 -0.08799499 -0.11897106 0.08910639 0.22678132 0.084079705 -0.19266385
-0.1957973 -0.010534927 0.0004095916 -0.13376161 0.12555937 -0.0061396924 0.0019471875 -0.046846077
-0.37382433 0.2551236 -0.21746439 -0.58983976 -0.054519895 0.14148454 -0.14394474 -0.19230491
0.22401942 0.15106381 -0.41610697 -0.0040277555 -0.34358832 -0.18966177 -0.10514646 0.1347543
-0.17862 -0.24142732 -0.11753937 0.19548239 -0.38157478 -0.19589345 -0.18369205 0.038091097
-0.15995836 -0.057004686 -0.19757245 0.1905929 -0.019500878 -0.08099484 0.36185232 -0.04420472
-0.550258 0.046157233 0.07260021 0.008452235 -0.0055944556 -0.28860027 -0.21019731 -0.16268139
-0.22754009 0.11426838 -0.21228363 -0.14148325 0.13820447 -0.2512286 -0.0063978885 0.008725847
0.06171542 -0.34166518 -0.17410879 0.080690734 -0.24524428 -0.16008832 -0.20856977 -0.005573936
-0.19129662 -0.039079677 0.15311688 -0.061460402 0.12519781 0.16822226 -0.42182922 -0.05200187
0.07037613 -0.030642617 0.0045047705 -0.022103658 0.066602446 -0.07697565 -0.026544088 0.02350183
0.009761186 -0.12011494 0.018600766 0.0038968758 0.08199694 0.110233776 0.3000006 0.0018339779
-0.37422845 -0.41323358 -1.442223 -0.11971319 -0.023457631 -0.07425674 0.044755407 0.08463828
-0.07760825 0.120780826 -0.029669825 -0.04324238 -0.04495088 0.11827974 0.027292036 0.018720891
0.089534715 0.06658543 -0.012479815 0.016631667 0.032907516 0.016844308 0.23490071 0.048295453
-0.08721834 -0.023585392 0.066257715 -0.21216051 -0.018157111 0.025177008 -0.22484626 -0.09261044
-0.013634331 0.10914111 0.003892873 -0.09491138 -0.15485878 -0.1358374 0.1854782 0.25040233
-0.21398906 0.32379383 0.07171768 -0.49531052 -0.0019589115 -0.1073789 -0.21840855 0.029069273
0.09913629 0.080575235 -0.097704485 -0.184515 -0.057150513 0.23944432 0.12274853 -0.24214016
-0.04215558 0.05989033 0.10401037 -0.18137802 0.20275429 -0.1366425 -0.099023215 -0.27256644

fc1.bias f4 [64]
00000000: bfa5 213e cd7c efbc 7ee4 bebd 571a 72bd
00000010: befc 0b3e f1ae f6bb 6742 02be 5ae2 1e3e
00000020: 7f4b 763c 63e3 3abe 4640 453e 1a65 4a3e
00000030: 1007 2d3e e011 bb3c d60a 04bd 1089 43bc
00000040: 26d1 ba3d 9b20 b93b 5867 b63d 3ac1 e9bd
00000050: 6e42 f1bd 592e 833d b948 3f3d 5007 1dbe
00000060: 9730 c1bd 71b9 af3d ca17 8a3c 63d3 a3bd
00000070: 6b6a 5c3e 3231 fd3d c7a6 24be a1f9 64be
00000080: 7b1e 453e fdda 2b3d d171 19bd 4b7b 19bd
00000090: f515 a7bb 258e 533d a334 62bc 9754 2cbe
000000a0: 5adb f7bc 586a c3ba b274 cb3c 2375 a43e
000000b0: b0f8 553d ea1d 0abe cfa0 a8ba fee3 4dbe
000000c0: 7ae0 4abe 5e15 e33d 3fc8 12be 66e5 153d
000000d0: 4a11 0cbd 2399 eebd 89c2 24be 2905 bf3c
000000e0: 487e 563d 822b 0d3d b289 28be 18a7 dcbd
000000f0: 0188 fb3c 8bfc dbbc 7d6a 2c3d 0fe4 b93d
0.15785883 -0.029234314 -0.09320925 -0.05910715 0.13670632 -0.007528179 -0.12720643 0.15516034
0.015032648 -0.18250804 0.192628 0.1976513 0.16897225 0.022835672 -0.032236896 -0.011934534
0.09121923 0.005649639 0.0890643 -0.11413808 -0.117802486 0.064053245 0.046700213 -0.15334821
-0.09433096 0.08580292 0.016857047 -0.07999303 0.2152497 0.12362899 -0.16079246 -0.22360851
0.19249909 0.04195689 -0.03746206 -0.037471097 -0.005099053 0.05164923 -0.013806495 -0.16829143
-0.030255962 -0.0014909012 0.024835918 0.32120618 0.05223912 -0.13487974 -0.0012865308 -0.20106503
-0.19812194 0.1108806 -0.143342 0.036595725 -0.034196176 -0.11650302 -0.16089834 0.02331789
0.052366525 0.03446532 -0.16458777 -0.10774058 0.0307045 -0.02685382 0.042093743 0.09076702

fc2.weight f4 [64, 64]
00000000: 3686 a13d f1ef ad3b c19e 8e3e cf10 ad3c
00000010: 338f a03d 4bdb 36bd 372c 93bd b7c4 ed3c
00000020: 80c5 5ebd 7279 c63d 19c5 ad3d 8f5c 2abd
00000030: 7089 33bd 3f20 183e 4f2f 29bd dc1f cd3c
00000040: 300f 393d 3971 37bd e112 c63d 97de 563e
00000050: c11b a3bd ebc6 11bd 887a 253e 1fa7 083c
00000060: d7a0 babd d4cd 54bd e0bf a23e b7ac 7f3e
00000070: 8624 1a3e 01aa b1bb d2d6 39bd 0240 1a3d
00000080: c05a 5a3d 2afc 263e e58a d03d 3807 df3b
00000090: 3aa5 c33b d036 993d 026a d73d bc03 06be
000000a0: b420 c53d 4871 aa3c 113e 7b3d f687 6d3d
000000b0: 7448 333e 732d 113a 92d6 70be 0fbd 713d
000000c0: 73b4 20be efce 9939 add3 9e3b 23d8 953c
000000d0: eea2 bfbd 6993 12be 0b0e 743d 9411 baba
000000e0: 16b3 14bc cb98 f03c f416 a0bd 43bf 873c
000000f0: 94ff 073e f6fb ac3d 7e97 27be a1da 983d
00000100: 26ce e2bb 9581 823e 887d f1be da23 8f3e
00000110: 3186 bc3d b8ae 793e 0274 66bd 7aae 8d3d
00000120: 2af1 fcbc b3fd 66be 8972 f9bd 5f0f 883e
00000130: ed70 1c3d 9996 243d 6138 a03d 9587 0dbd
00000140: e7ee 183e 4df7 403e 8e23 febd 9dab 863d
00000150: e8bb 10be 7a4a 603d 822d 853d c936 a63c
00000160: b27b 5d3e 3a69 413c 0529 f1bd 9995 04be
00000170: b328 2c3e fb49 a3bd 1045 a7be 5cf7 54be
00000180: f203 26be 1628 37bd 5c60 47bd a0f5 f13c
00000190: 13fc a6bd 2477 1f3d 98bb 0abe 10ff 07be
000001a0: a63d 763a bab9 1b3e 82c2 d7be d649 8dbd
000001b0: 4ef6 6fbe 77f6 f3bd 751a c5bd 0842 223d
000001c0: 5d5c c1bd c67b 9d3d 7da2 27be 7b6e 87bc
000001d0: 6fa9 11be 537e ecbd c0d0 54be 41d7 1ebe
000001e0: b1e6 d2bd 3a66 c53d 2e30 283d 6405 8f3a
000001f0: 6a2d f5bd 356c 9c3c b76a 333e bf69 e03d
00000200: 3621 24be dc1a e73c bcae 8a3c f376 d9bc
00000210: e905 f43d 6cad fe3d ac38 95be 4505 bf3c
00000220: f990 483d 0cc3 f3bd 4c6d acbd 7865 3c3e
00000230: bc60 15be 2021 313e 5719 613c d041 273d
00000240: 91b3 4bbe 3fa7 633e 0968 f4bd 31bf 57be
00000250: 23f8 55be 0ff2 623d 7172 e0bd 4a25 ef3c
00000260: 927d 3e3e 9061 253d ab62 873d 68db 483d
00000270: 1d94 d53d d195 f9bc fa66 0dbd 2fe9 03bd
00000280: 92a8 bbbd 10a8 9dbe 9ce1 03be 3c5b 0a3e
00000290: 6f5b b13c ef82 033c 1997 84bd 3b11 83bd
000002a0: 1107 f4bc caea a9bd 2817 dcbe 070d b6bd
000002b0: 12de e2bd 9add 14bd 0bf7 d63c 10f6 d53d
000002c0: ac94 21be 47ab 973b 4602 8cbd 6b84 383d
000002d0: 9c6c 7abc 2579 563e e0ad 92be 41c6 a43d
000002e0: d444 383d 93ec 9dbd 1546 683c d497 a03d
000002f0: 9227 a1bd 1a84 123e e2e5 203e 7904 523e
00000300: c930 393e 6a5b 88bd 7c73 593e 2382 76be
00000310: 8777 07be 5678 36bc a657 afbe 87b3 cd3d
00000320: 5558 d53d 095c 563d 862a 85bd 86e9 fb3d
00000330: 2695 38be 3dc2 723e f518 93bd 3ed8 2e3e
00000340: d4f6 fabc db4f 873b 442f 40bd 040a 01be
00000350: a6c8 57bd 96e1 d63d 1287 313b b66c 763e
00000360: d0c7 063e 0a2b 9f3d a79d a53e 7057 523e
00000370: f3e1 0f3e 350a efbd c835 fbbd 9e52 0f3e
00000380: d80b 3dbd d538 c6bd a513 37bd 2620 e13d
00000390: 495b 8cbd cbd2 9e3d 8cca 893e b42c 08bd
000003a0: 99fb 273e 2487 3b3e 6bfa 633e 0b35 a1bd
000003b0: cafd f9bd c5a8 4dbe 8389 6ebc 4070 abbd
000003c0: 4baa 9abe ab1e cfbd 4706 09be d9cc 453d
000003d0: 3583 fbbc 1bab 38bd 205a dcbd 3682 b03a
000003e0: ea5c e63b 8cfb fbbd 9aaa 9c3c ab07 67bd
000003f0: f389 f2bd d38d 633e dd32 fbbe 02f8 85bd
0.07886927 0.0053081443 0.27855495 0.021126179 0.07839813 -0.044642728 -0.07186168 0.029024465
-0.05438757 0.096911326 0.08484859 -0.041592177 -0.043832242 0.14856051 -0.041304883 0.025039606
0.0451805 -0.044785712 0.096715696 0.20983349 -0.07964278 -0.035590094 0.16160023 0.008340626
-0.09112709 -0.051954105 0.31787014 0.24968229 0.15052995 -0.0054218774 -0.045370884 0.0376587
0.053309202 0.1630713 0.10182742 0.0068062805 0.0059706243 0.07481158 0.10518266 -0.13087362
0.09625378 0.02080597 0.061338488 0.05799099 0.17508107 0.00055380835 -0.23519352 0.05901819
-0.15693836 0.00029336612 0.004847011 0.018291539 -0.09357248 -0.14314045 0.059583705 -0.0014195913
-0.009075901 0.029369732 -0.07816878 0.016570693 0.13281089 0.08446495 -0.16366383 0.07463575
-0.0069215475 0.25489488 -0.47166085 0.2795704 0.092052825 0.24383056 -0.056262977 0.069180444
-0.030876715 -0.22557716 -0.12180049 0.26574227 0.038193632 0.040182684 0.078232534 -0.03455313
0.14934884 0.18844338 -0.12409125 0.065757014 -0.1413418 0.054758526 0.065028206 0.020289795
0.21629217 0.011804873 -0.11775402 -0.12947692 0.168124 -0.07973095 -0.32669878 -0.20797485
-0.16212443 -0.044715963 -0.04867588 0.029536068 -0.08153548 0.03893198 -0.13548124 -0.13280892
0.00093933416 0.15207568 -0.42140585 -0.06898849 -0.23433802 -0.11912244 -0.09624187 0.039613754
-0.09441445 0.076896235 -0.16370578 -0.016532173 -0.1422479 -0.11547532 -0.20782757 -0.155118
-0.10297907 0.09638639 0.041061573 0.0010911641 -0.11971553 0.019094566 0.17521177 0.109576695
-0.16028294 0.02821105 0.016929023 -0.026545977 0.1191519 0.12435421 -0.291448 0.023317942
0.04896638 -0.119024366 -0.08419284 0.18398082 -0.14587682 0.17297792 0.013738952 0.040834248
-0.19892718 0.22231768 -0.11933906 -0.21069027 -0.20895438 0.055406626 -0.10959328 0.029192585
0.18602589 0.040376246 0.06610616 0.049037367 0.10428641 -0.030466946 -0.034522034 -0.032204803
-0.091630116 -0.30792284 -0.12879032 0.13511366 0.021650044 0.0080268225 -0.06474132 -0.06399771
-0.029788526 -0.082967356 -0.42986417 -0.088892035 -0.11077513 -0.03634415 0.026240846 0.10447323
-0.1577937 0.004628572 -0.06836371 0.04504816 -0.015284684 0.2094465 -0.2864828 0.080456264
0.044987515 -0.077111386 0.014176865 0.07841459 -0.078688756 0.14308205 0.15712693 0.20509519
0.18085016 -0.06658061 0.2123546 -0.2407308 -0.1322919 -0.011137089 -0.34246558 0.10044008
0.104172386 0.052333865 -0.06502251 0.123004004 -0.18025646 0.23706909 -0.071824946 0.17074677
-0.030635275 0.0041293926 -0.046920076 -0.12601477 -0.052681588 0.10492246 0.0027088565 0.24064907
0.1316216 0.07771881 0.32346842 0.20541167 0.14051037 -0.11671869 -0.12266117 0.1399636
-0.046153873 -0.096788086 -0.04469647 0.1099246 -0.06853349 0.07755049 0.26912344 -0.033245757
0.1640457 0.18313271 0.22263496 -0.07871445 -0.122066095 -0.20083912 -0.014559153 -0.08371019
-0.30208048 -0.10113271 -0.13381301 0.04829106 -0.030702213 -0.045085054 -0.107593775 0.001346654
0.007030119 -0.12303838 0.019124318 -0.056403797 -0.11842718 0.2222207 -0.49062243 -0.06541444

fc2.bias f4 [64]
00000000: 5ee9 783e 5182 37bd a3f0 d03d c237 c2bd
00000010: 2814 2d3e fe8c dbbc bfaf b6bd 0735 e83d
00000020: ef4f 4c3e f02e cd3e 17ed cabc 19d1 673e
00000030: 44dc a03e 2d75 1fbe a6d9 10bc fdfc be3d
00000040: 948a 8fbc 7537 e73c 7603 0dbe 3622 913d
00000050: 9c40 b7bc 7cd9 0f3e 7b26 8cbd 806f eebd
00000060: e25a e93c 1cb8 dfbd 597c 2fbc 970e 84ba
00000070: 811e 06be 4493 3b3e e3af 993d 9f9d 2ebb
00000080: 9be4 f4bd d714 fe3d da9c 4f3c 0dc4 99bd
00000090: 26a2 c0bc 6f46 d1bd d4b5 ce3e 8c91 4dbb
000000a0: b0e7 c0bd 4d3f f23e 92da 583d 5b9d 3cbd
000000b0: 6707 32bc 97b7 b4bd a421 893e 71a0 15be
000000c0: 9f0c f73d 206a 303b c13d a5bd 985e 9d3e
000000d0: 125a a6bd 4118 b6bd ca25 0c3e 7114 a5bd
000000e0: 263b 0ebe 22c7 cdbd 045a 2a3c dd2b e6bd
000000f0: 90b8 b43d 71b3 163e 8d8d de3d e084 053d
0.24307773 -0.044802014 0.10202148 -0.09483291 0.1690222 -0.026800629 -0.0892024 0.11338239
0.19952367 0.40074873 -0.024771256 0.22638358 0.3141805 -0.15572043 -0.008840954 0.093255974
-0.017522134 0.028224686 -0.13770851 0.07086603 -0.022369675 0.14047807 -0.06843277 -0.11642361
0.02848572 -0.10923788 -0.010710799 -0.0010075149 -0.13097574 0.18317896 0.07504251 -0.0026644242
-0.119576655 0.12406319 0.012671674 -0.07508097 -0.023514818 -0.10218512 0.403731 -0.003136727
-0.09419191 0.4731392 0.05294282 -0.046048503 -0.010866023 -0.088240795 0.26783478 -0.14611985
0.12062954 0.0026918724 -0.08068419 0.30736232 -0.08122648 -0.08891345 0.1368629 -0.080605395
-0.13889751 -0.10047747 0.010397438 -0.11238835 0.08824265 0.14716889 0.108668424 0.032597423

fc3.weight f4 [4, 64]
00000000: 4bb7 ae3d a7c9 c0bd 9813 7b3c 78c0 afbd
00000010: fcb4 a33e fed8 833d 55f5 bd3e f9ae acbd
00000020: 4e83 643d dd00 e03d 4e1d 133e 75b6 8f3e
00000030: 23e1 033e 16af 283d e801 923e c64e e03d
00000040: cb13 52bc e700 8a3e 651c dcbd b3e0 593e
00000050: 7f46 293e f9ca ae3e e2c6 d63c d479 31be
00000060: e623 2ebe 6567 3fbe c019 3bbe ccac fdbe
00000070: f536 11be 914f 323d 7186 debe efe6 293e
00000080: 2e1c 7e3d 8d28 a73e 4853 2a3e 6fa9 95bd
00000090: e713 bd3e 622a 15bf 98d4 343e d456 a33e
000000a0: d1f3 a0bd 3ff8 143e beb7 893e 5ea2 c1bd
000000b0: 3b68 433e 58ad 30be 2113 373e 9c19 3f3d
000000c0: 0ba9 8c3e bb56 713e 2775 f23d 3cb7 123e
000000d0: 17c0 ce3d 2673 e6be 6f23 ae3d 86c3 383e
000000e0: 626e a1be e01b c33d b637 283f 4be9 c7bd
000000f0: 230b 553d aecd 933d 02c8 7d3c 4c42 293e
00000100: 1ba7 373e de0f a4bd 1dc6 433e 360a 23be
00000110: 1c48 123f a9a9 0d3e 7bea c93e 96b4 7a3d
00000120: d4cb ac3d 4180 be3d 7666 80bd d89b 8a3e
00000130: a5b4 f03c 5564 9d3e a1bc 523e 6c86 273e
00000140: 5a19 ebbd bb99 4c3e b251 07be bb45 903e
00000150: d2c3 a33e 480a 9d3e 43df d33c edbb debd
00000160: 46b5 673b eb27 ddbd ec0d 09be 8362 073d
00000170: 2963 6cbe 6c9f ef3d 95d2 fe3d b5a1 2a3e
00000180: c2aa 99bd c5e2 423e c968 ed3d 83e4 fcbe
00000190: 23d9 c73e 7fbf e2bd 2728 303e 6d65 753e
000001a0: 6535 f03d c2d3 1a3e e749 1a3f 4fd9 863e
000001b0: 1005 39be bb81 68be fbff 103e 550a babd
000001c0: fde2 903e 3f56 343e d995 733e e7fa 2d3e
000001d0: 32ff 5c3e 1017 26be 116a 7d3d c9ea 40be
000001e0: 87cb 22be 7b5f 593d 53df a93e 4709 a0be
000001f0: d531 b4be 6692 1fbc 81b5 cbbe b434 3b3e
00000200: aeb3 893d b045 713e b1dd 993d faf2 a4bd
00000210: dd4d fb3e f00e 0d3e dce4 ec3e 1dc5 e33c
00000220: 74a3 7fbb b2d1 013e d73f 523e f60c 733e
00000230: e847 253e ecc3 c7be aee1 97bd 1c07 aa3e
00000240: ef58 bf3c 1d03 463e 75be 78be 060b 5e3e
00000250: fb9e 0c3f 488c 7a3e 6600 48be a57d 8abd
00000260: 5ad5 583d 4481 30bd c13d 333d fdb0 f9be
00000270: 902c 913e fcee 573e a677 623d 030b 1c3c
00000280: 37b2 3fbe 8ee6 8a3e 2044 c13e 7315 683d
00000290: f213 013e c844 5fbe 1c97 283e 7e99 4c3e
000002a0: 551a 6d3d 5398 173e aa44 8d3d cfcb f9be
000002b0: 98c2 2a3e bd67 fe3d 7359 083e 5d35 093e
000002c0: 6245 363e 4d0c c93c dc35 2dbe d0f8 773e
000002d0: 6b1f d3be 7f2b 1dbd 905f 133e 59a8 893e
000002e0: f680 8dbe fd85 bebe 793f fc3e 3d9f c7bd
000002f0: 07c2 f7be 97cd f73d 35b9 973e 0070 493e
00000300: 33d6 d83d 4c09 a13e 644d 053e 5f37 8dbe
00000310: 5543 693e 4d35 8a3e 76ce ab3e d92a 453e
00000320: 6660 fc3d 19b5 453e 930b b13e a9e8 963d
00000330: bb1f 363e 10d6 58bc d3d2 b23e fd12 093e
00000340: 1e9c 013e be17 e53e 5c08 9fbd 28e3 853e
00000350: 0ea8 0fbe 83d7 713e 1033 2dbd 04ea 2b3e
00000360: 2d58 e03d 0a67 2abe 1f9e 5dbe a6dd 393e
00000370: 4cc8 463e 3059 413d c48d 2ebe 52b2 1a3e
00000380: 698b 26be 13b7 083e 4dc9 333c 0bf7 a5be
00000390: bfde e03e dfbf 8a3d a632 1b3e 3a46 873d
000003a0: 18b0 a7be a657 283e c792 643f 300d 18be
000003b0: 7db2 a83e 25e0 f1bd d552 c63d 341b 6d3d
000003c0: 75f4 b33e 7a90 a63d 6a3f 0b3f 5b7a 6c3e
000003d0: b41b 69bd d9f7 68be af14 923d 9b76 e33e
000003e0: 714e cbbe b8bd 7fbe 6614 563e 9688 85be
000003f0: 558f 2a3e 1563 7e3d 02dd b8be 0ca0 113e
0.08531054 -0.09413462 0.015324496 -0.085816324 0.31974018 0.06437872 0.37101236 -0.08431811
0.055789284 0.10937665 0.14366648 0.2806889 0.12878852 0.0411826 0.2851708 0.10952525
-0.012822102 0.26953813 -0.10747603 0.21277122 0.16530798 0.3413923 0.026217882 -0.1733163
-0.17005882 -0.18691786 -0.18271542 -0.49545896 -0.1418112 0.04353291 -0.43461946 0.16592
0.062038593 0.32648125 0.16633332 -0.073077075 0.36929247 -0.58267796 0.17659223 0.31902182
-0.07859004 0.14547823 0.26897997 -0.09454797 0.1908273 -0.17253625 0.17878391 0.046655282
0.2747272 0.23568241 0.11838751 0.14327711 0.10095232 -0.45009726 0.08502852 0.18043336
-0.31529528 0.09526801 0.6571001 -0.09761294 0.052012574 0.07216965 0.01548958 0.16529197
0.1793484 -0.08010839 0.19118543 -0.15921864 0.5714128 0.13834251 0.39436707 0.061207376
0.08437315 0.09301806 -0.06269543 0.27072024 0.029383013 0.3074061 0.20579769 0.16359872
-0.11479445 0.19980519 -0.13214758 0.281782 0.31985337 0.30671906 0.025863295 -0.10875688
0.003535585 -0.107986294 -0.13384217 0.033052932 -0.23084702 0.11700329 0.12442509 0.16663249
-0.075032726 0.19031818 0.11592252 -0.4939309 0.3903285 -0.11071681 0.17202817 0.23964472
0.11728934 0.15119842 0.60269016 0.26337668 -0.18068337 -0.22705738 0.14160149 -0.09084002
0.28298178 0.17611025 0.23787631 0.16990243 0.21581724 -0.16219735 0.06186873 -0.18839563
-0.15897952 0.053069573 0.33178195 -0.31257078 -0.3519427 -0.009739494 -0.39786914 0.18281823
0.06723724 0.2356174 0.075129874 -0.080541566 0.49082842 0.1377523 0.46268356 0.027803952
-0.0039007338 0.12677649 0.20532165 0.23735413 0.16140711 -0.39016664 -0.07416092 0.3320855
0.023357837 0.19337125 -0.24291404 0.21683893 0.54930085 0.24467576 -0.19531402 -0.06762246
0.052937843 -0.043092027 0.043760065 -0.48767844 0.2835431 0.21087259 0.055289887 0.00952411
-0.18720327 0.27129024 0.37747288 0.05666108 0.12605265 -0.21803582 0.16463894 0.19980428
0.05788644 0.14804201 0.06897862 -0.48788306 0.16675794 0.1242213 0.13315372 0.13399263
0.17799905 0.024541998 -0.16915077 0.24216008 -0.41234908 -0.03837156 0.14391923 0.26886252
-0.27637452 -0.372116 0.49267176 -0.09747169 -0.4839022 0.1209976 0.2963349 0.19671631
0.1058773 0.31452405 0.13017803 -0.27581307 0.22779591 0.2699379 0.33555955 0.19254626
0.12323074 0.19307365 0.34579143 0.07368595 0.17785542 -0.01323463 0.3492647 0.1338615
0.1265721 0.44744676 -0.07765266 0.2614987 -0.14028952 0.23617367 -0.042285025 0.16788489
0.10954318 -0.16640869 -0.2164235 0.18150958 0.19412345 0.047204196 -0.17046267 0.15107086
-0.16264118 0.13351087 0.010973287 -0.3241504 0.43919942 0.06774878 0.1515604 0.066051915
-0.32751536 0.16439685 0.89286464 -0.1484878 0.32948676 -0.1181033 0.09683768 0.05788727
0.35147443 0.081330255 0.5439364 0.2309355 -0.056911185 -0.22750796 0.07132851 0.44426426
-0.39708284 -0.24974716 0.20906219 -0.2608077 0.1665624 0.06210621 -0.36106116 0.1422121

fc3.bias f4 [4]
00000000: ee93 943e 8a99 843e 98bc 1c3e 3f36 2d3e
0.2901911 0.2589839 0.15306318 0.16915224
