p2_continuous-control/checkpoint_critic.pth (torch_old, 171055 bytes, 9 tensors)

normalizer.weight f4 [33]
00000000: ecb9 013f 904c a83e 65cb f43e aafb 5f3d
00000010: c264 523d 7eb2 923d f16d 2a3d 95b6 dc3d
00000020: c23a 1c3e 5f8a 1a3e d46f 793e e246 673e
00000030: 3ef7 5a3e 5281 703f 5db1 fa3e 0e2b 483f
00000040: 9db5 203d a29d 273d c8ab 143d f952 2f3d
00000050: caba 353e fed4 d63d b650 fe3d 1897 083f
00000060: 3c3e c03e 27c0 f33e 3df9 5a3f a84e 613e
00000070: a90f 593f 66a0 833e 7096 3b3d 98b8 333e
00000080: 1dfe b43f
0.5067432 0.32870913 0.47811428 0.054683365 0.05136562 0.07162951 0.041608755 0.10777012
0.1525679 0.15091847 0.24359065 0.22585633 0.21383378 0.9394733 0.48963442 0.78190696
0.0392357 0.040921815 0.036296636 0.04280374 0.17747036 0.10489844 0.12417738 0.5335555
0.3754748 0.47607538 0.8553656 0.22002661 0.8478952 0.25708312 0.045797765 0.17550886
1.4140049

normalizer.bias f4 [33]
00000000: 0335 44be fa96 c13c d604 fc3d 468b 4d3a
00000010: 689f 6c39 56cd 543c 0f29 e83b 0f35 5abc
00000020: da9e a7ba 3e93 343b c5f4 89bc 55e3 273c
00000030: a1e1 dbbc 7928 dcbd 6602 073d 1b7c a73d
00000040: c307 e7bb df16 c23b 8353 263b 656f 88bb
00000050: e725 f83c fdcd c83b 985e 083c 3c3e 49bc
00000060: 58b8 1abe 72d3 c93b 1d27 8ebe 879e d13e
00000070: 65e3 333e 301b 7a3a 71bd adbe 3abc 28b9
00000080: 7e03 3a3e
-0.19160847 0.023631562 0.1230561 0.0007840883 0.00022566097 0.012988409 0.0070849727 -0.013318314
-0.001278843 0.0027553583 -0.016840348 0.010247071 -0.026840987 -0.10749907 0.03296127 0.08177968
-0.007050486 0.0059231366 0.0025379367 -0.00416367 0.03029151 0.0061280713 0.008323334 -0.012282904
-0.15109384 0.0061592394 -0.27764216 0.4094126 0.17567213 0.00095407944 -0.33933595 -0.00016091848
0.18165395

normalizer.running_mean f4 [33]
00000000: e26e 963f f130 f9bf 1733 0cbf 37dc 063e
00000010: e017 3c3c b833 7e3c 2640 39bc 4bd4 953c
00000020: c9ef 94bc 5c3d 1f3d a78f 1a3d 2ef3 bcbc
00000030: 6bd9 00bb b963 e23f 0a12 54c0 6182 94bf
00000040: 18d7 703c ce2f afbc 3ce0 03bb 6e24 4dbc
00000050: 4d42 983f 4d68 f93d 1cac 333f 5cbe 21bd
00000060: 0fca c93b b68f 3dbd 6eb0 44be fcff 7fbf
00000070: 75f9 b5bc 0000 0000 fcff 7f3f 0000 0000
00000080: 008f 6a3c
1.1752589 -1.9468061 -0.54765457 0.13169943 0.011480302 0.01551526 -0.011306798 0.018289706
-0.018180745 0.038876876 0.037734654 -0.023065176 -0.0019660841 1.7686683 -3.313601 -1.1602288
0.01469972 -0.0213851 -0.0020122668 -0.012520893 1.1895233 0.12178097 0.70184493 -0.03948818
0.0061581205 -0.04627963 -0.19207928 -0.99999976 -0.022213677 0.0 0.99999976 0.0
0.01431632

normalizer.running_var f4 [33]
00000000: d566 9440 6b67 ea3f 2cc5 8440 ff32 de3e
00000010: 0950 f03d 1db4 953e b92b 0d3e ed9e 0440
00000020: d4d6 513e c9ec ab3e 85fa c140 13cc d140
00000030: 52c1 fa40 bd43 8f41 0db9 c040 40cd 9141
00000040: 4092 813e 8353 7e3e 4ce5 6b3e 251e 893e
00000050: 8658 a540 97b0 eb3f 63aa 3640 328a 6841
00000060: 5463 a541 fbe0 9841 9749 0042 0400 0000
00000070: bb3c ff41 0400 0000 0400 0000 0400 0000
00000080: 3213 b23e
4.6375527 1.8312811 4.149069 0.43398282 0.117340155 0.29238978 0.1378621 2.0722
0.20492107 0.3357909 6.061831 6.5561614 7.8360987 17.908075 6.022589 18.22522
0.25306892 0.24836545 0.23036689 0.2678081 5.167056 1.8413266 2.8541496 14.533739
20.6735 19.109854 32.071865 6e-45 31.904654 6e-45 6e-45 6e-45
0.3478027

layers.0.weight f4 [256, 33]
00000000: c1d9 413e 1c23 2fbd 5257 973d f861 953e
00000010: 78bd 87ba 02e5 bfbc 43b8 033f 9f10 7bbe
00000020: 2546 9b3d ea0c 95be 2f7a 90bd fae5 6abe
00000030: 22b8 adbd 5ab7 8fbe cec5 063d 68d1 3239
00000040: d05f 33be 2c69 5cbe e6e3 e4be 3ed5 5f3f
00000050: 06d1 8bbe 5a8e f5bd 87fb a03d bc2d 67bc
00000060: 88b5 2d3e a43c 3f3e 7385 0a3e ef6e f0bd
00000070: 41d6 44be 7caa 4e3d 8e13 063e 8a49 47bc
00000080: 79c5 09be 050c 1cbe 2396 91bd d0de 063e
00000090: d0f5 6bbe c3c8 483e e437 b13d 54d8 983d
000000a0: afb8 dbbd 9424 2cbe 5ed2 343e ab68 3b3e
000000b0: f618 42bc 76e0 c23e eb54 923e 30de 26be
000000c0: 400e a5bd fdeb 83bd e9c3 823d c633 d13e
000000d0: a501 eabd fd96 99be 6c2c 5d3e 25ba 3dbd
000000e0: 5055 9d3d 8361 e6bd 4a50 3bbe bc7d 1ebd
000000f0: 6c17 fc3c a7d4 50be 0952 88bc bae3 da3b
00000100: 8367 4c3c 38de aebb 1a3f bc3e 608a 753d
00000110: 3310 14be 5bcd 18be ddda ff3d 38ae 1abd
00000120: 4e39 6dbd 2b38 f03c 96eb babd af88 d53c
00000130: b42a 84bd 391b 343c 94ed f93d 7e23 e7be
00000140: 06c9 c5bd 424b e2bd a463 b13e 13b7 1f3e
00000150: c935 3b3c 74a9 473e 194c 8c3c 6324 7b3e
00000160: 784a ff3d ee67 2abe 1126 ed3d 7bb7 70bd
00000170: 50ae de3e c71e 0ebe 7384 7a3c 30ba 573c
00000180: ca47 223e 7892 debc aa73 95bd 7999 313d
00000190: 5f00 b1be 180c 8d3e b2f7 6c3d de79 afbd
000001a0: fbeb 2a3e 6c2f 033e 35fe 633e d8b8 4fbd
000001b0: 66c6 633e 9b44 67be 7f49 c8be 92ee db3e
000001c0: aff7 1e3e 4eeb 893e 4df4 73bd f917 893c
000001d0: 3a36 2ebd 6d64 823d 1d00 503e 428f 10bf
000001e0: 65e1 a2bd 1766 c63c a9ee ddbd 646c 473e
000001f0: fb86 1e3e 5621 14bd d519 29be d1c7 68be
00000200: d732 acbc ca7c a23d 684b b63c eb03 a03d
00000210: 4969 903e 4820 87be 5e8c a5be 8a09 78be
00000220: b9f4 893c 422b 85be 3efc 38be 8a76 15be
00000230: 204b 81bd 44a6 1b3e a0ea 09b9 316e 9ebe
00000240: dd9a 95bc 669b 66be 3103 4c3e 4c0f a73d
00000250: 9705 c7bc 53d4 e23c 2d64 fcbd e3bb 2a3e
00000260: 2162 c7be 2fa2 fa3d 50bf 683e c903 17be
00000270: c09b 9d3d 02c1 24bd a204 7f3e f603 f0bd
00000280: efcd 9ebe 172f 253d e273 d93d d23e 02bd
00000290: 6d2d a9bd 7299 753e 202e 27bd 015b 98be
000002a0: 60bb d5bd 587f a73d b551 51be f1b0 62be
000002b0: 6e49 823d efd0 83bd 2604 7d3e 503f 013e
000002c0: a088 033e 3a5d 0abe b5fb 3abe 0647 863d
000002d0: 3915 8e3e f824 d4bd a512 073d 10ce c5bd
000002e0: 20f3 8d3e 129c 7dbe fcab 153d cba5 cdbe
000002f0: e530 03be 083d 2bbe c59a 0d3e fd61 a1be
00000300: 9430 d2be f784 243e a43a 00bc 8423 c83e
00000310: 1bec d33a d614 023c ba4d 03be 9c89 b13e
00000320: 0027 f4bc f85c 02be 990e 8abe 042f 733e
00000330: 8503 afbc 09c4 253e 41f0 85be 9472 073d
00000340: e690 c0be f9e7 573d 9883 5a3d c9b5 0f3d
00000350: 7e2f 563d 7c2a bbbd 24e1 133f 7342 313e
00000360: eaeb 89be fce9 c5bd 18a3 09be c153 263d
00000370: bc5c b6bd d336 acbe b901 e13e ac35 18bd
00000380: 7cb5 b33c d0eb bebe d379 753e 7b8d cf3c
00000390: c6ba 953e 49f2 67bc c05c fc3d 994f 813e
000003a0: 635a 853c cef1 393e e2b8 083e 8255 39be
000003b0: e01c e7bd 8b26 d83d 1f89 80bd 7616 36bc
000003c0: 86cd 8c3d 7502 da3d c61c 73be fa85 ee3d
000003d0: 9bb4 8fbe 2a83 ac3d 8b37 85be 4a90 643d
000003e0: 439a c7be 233a ba3e 19a5 c7bc 827f 70bd
000003f0: 623f 3f3d 14ca 97bd 850d 763c d185 2e3d
0.18930723 -0.042758092 0.07389702 0.29176307 -0.0010356149 -0.02342463 0.51453036 -0.24518059
0.075817384 -0.29111415 -0.07054555 -0.22939292 -0.08482386 -0.28069574 0.032903485 0.00017053413
-0.17517018 -0.21524495 -0.44705123 0.87434757 -0.2730791 -0.11990042 0.07860475 -0.014110025
0.1696378 0.18675476 0.1352747 -0.11739909 -0.19222356 0.050455555 0.13093397 -0.012163529
-0.13454236 -0.1523896 -0.071087144 0.13170934 -0.23042989 0.19607835 0.086532384 0.07463136
-0.10728585 -0.16810828 0.17658374 0.18301646 -0.011846771 0.38061875 0.28580412 -0.16295695
-0.080593586 -0.064414956 0.06385023 0.40859812 -0.11426095 -0.29998007 0.21598977 -0.0463201
0.07682288 -0.11249068 -0.18292347 -0.03869413 0.030772887 -0.2039362 -0.01664068 0.006679979
0.012475851 -0.005336549 0.36766893 0.059946418 -0.14459305 -0.14922087 0.12492917 -0.037763804
-0.057915978 0.029323658 -0.09126966 0.026066152 -0.064534575 0.0109928185 0.122035176 -0.45144266
-0.09657483 -0.110495105 0.34646332 0.15597181 0.011426398 0.19498235 0.01712613 0.24525599
0.12465376 -0.16641209 0.11579526 -0.05876873 0.43492365 -0.13878928 0.015290367 0.013166949
0.15847698 -0.027169451 -0.07297452 0.043359254 -0.34570596 0.2754829 0.05785341 -0.08568166
0.16691582 0.12811059 0.22264941 -0.05071339 0.22243652 -0.22584765 -0.39118573 0.42955452
0.15524171 0.26937336 -0.059559155 0.016735064 -0.042532183 0.06366811 0.20312543 -0.56468594
-0.07953147 0.024218602 -0.108365364 0.19474941 0.15481178 -0.036164604 -0.1651376 -0.22732474
-0.021020336 0.07933958 0.022252753 0.07813247 0.28205326 -0.26391816 -0.32333654 -0.24222389
0.016840326 -0.26009566 -0.18064973 -0.14596 -0.06313157 0.15200144 -0.00013152743 -0.30943444
-0.018262321 -0.22520217 0.19923092 0.081572145 -0.024294658 0.027689135 -0.123237945 0.16673236
-0.38942054 0.12237965 0.2272923 -0.14747538 0.076957226 -0.04022313 0.24904111 -0.117195055
-0.3101649 0.04032811 0.10617806 -0.03179819 -0.082606174 0.23984316 -0.040815473 -0.2975693
-0.104361296 0.08178586 -0.20441325 -0.2213781 0.06361662 -0.06436335 0.24708614 0.12621808
0.12845087 -0.13512126 -0.18260081 0.065565154 0.27750567 -0.10358614 0.032976765 -0.09658444
0.27724552 -0.24766567 0.03654097 -0.40165552 -0.1281162 -0.167225 0.13828571 -0.31520072
-0.41052687 0.16066347 -0.007826481 0.39089596 0.0016168387 0.007939538 -0.12822619 0.346753
-0.029803753 -0.12730777 -0.26964262 0.23748404 -0.021363983 0.16188063 -0.26159862 0.033068255
-0.3761055 0.05271146 0.053348154 0.035085473 0.052291386 -0.091389626 0.5776541 0.17310505
-0.269378 -0.096637696 -0.13441122 0.040607218 -0.089044064 -0.33635578 0.43946627 -0.03716056
0.021937124 -0.37289286 0.23972254 0.025336018 0.2924406 -0.014156886 0.12322378 0.2525604
0.016278451 0.18158647 0.13351777 -0.18099025 -0.11284804 0.105542265 -0.06276154 -0.011113754
0.06875138 0.10645 -0.23741445 0.11646648 -0.2806748 0.08423455 -0.26018938 0.055801667
-0.3898488 0.3637248 -0.024370717 -0.05871535 0.046691306 -0.0741159 0.015017872 0.042608086

layers.0.bias f4 [256]
00000000: eae7 90be 39e3 a6bd 8390 f9bb 6b41 87be
00000010: b0ba 46be 28bd 81be ea2b 9fbe a83e 67be
00000020: 0457 53be e78b 0fbb 66cc 82be 5ad8 053d
00000030: e8c0 ecbe d35d 61be cbb7 10be 99b9 c7bd
00000040: c373 26be c370 9bbe 21ed 82bd 51eb b9be
00000050: 308b 38be e277 4ebe 8069 543d 8cea 99be
00000060: d271 bbbe 57e8 bdbe 04da 6e3d d2d5 90be
00000070: 20d0 e8be b729 bbbe fcc1 29be 3ab6 07be
00000080: 5b18 0bbe fc65 adbc f6de ad3c 4965 50be
00000090: 22b9 9abe 3295 0fbd 4417 b4be 3170 99be
000000a0: cfe8 64bd 8ae6 d7bd d22d 27be c009 26be
000000b0: 134b e5bd 44ec 7cbe 9489 c2bb 45e0 343d
000000c0: 79bb 6abd 7966 11be da5a 17be a79c e7bd
000000d0: 544f 2cbe cb34 a6be d58e 12be 42bd 83be
000000e0: 9397 7d3e b10e 26be e682 01be 52c2 53be
000000f0: ea8a 043e 0467 6bbe a50b 8fbe 1b6f 43be
00000100: dcce c6be 2576 65be f769 17be fd68 e93c
00000110: a73e 2dbe 3722 18be 5f37 d5be aa37 94be
00000120: 3730 0abf 0e4b b7be 0097 0ebe 4332 86be
00000130: 4960 6fbe 7926 253d 7ed9 d5bd 672d 59be
00000140: 696a a4be bef3 93be d6b5 86be ba71 01bf
00000150: 0141 88be 6421 293c 6729 e0bd 43ed 46be
00000160: d3a0 c2bc d760 05be 0de8 9bbe 950c 8bbd
00000170: 087f 1bbd 3a84 83be df54 d8be 3a7f f5bd
00000180: d582 0abe b436 b9be 5b80 9ebe 56ff 6abc
00000190: 5dd4 45be 2e38 d3bd 029e 47be 67a8 0ebd
000001a0: f2be 77be 0f6e b2be b6e9 62be 06fd 423d
000001b0: c992 27be 8ec4 12be a1bf 07be 74ff f6be
000001c0: c632 cbbd e853 28be b857 1abd 7ce1 36bc
000001d0: 3207 a8be 7e17 eabe 6ed0 47be a465 3abe
000001e0: be99 ccbd 1829 8cbe 48cc d0bd c378 83be
000001f0: 5c30 8dbe ce22 24be 2e49 b5be 5531 d7be
00000200: fe85 6ebe a4b9 9cbe 3cbc 4dbe d73a 45be
00000210: 7955 72be 0c3e bcbe 7ba8 85be a37d e6be
00000220: 822b 9cbe 3bcb 3dbe 66a6 68be a325 e8bd
00000230: 7a91 8abe dd61 a3bd 0c32 7ebe 202e b9be
00000240: 58be 97be ff54 6dbe 9b9a 8dbe 4420 42be
00000250: 2745 723d e31f 85be c515 4ebe 2477 64be
00000260: 1c32 eebd f4e8 2fbe 491f 1f3b e62b d6be
00000270: 3354 2c3d ad28 09bd 9810 2fbe f582 bb3c
00000280: 4811 f8be 2169 20be b7ea bebe ff18 58be
00000290: cb7e 0b3c 954a 1fbe 8f0b 3cbe d496 87bd
000002a0: 771b 4c3e 8954 a3be 1cce 443e 47f4 03be
000002b0: a7eb babe d082 97be f029 cfbe ab37 583d
000002c0: 416c e6bd 682c 1dbe 13d9 14be a2c9 44be
000002d0: 9e06 24be 5763 a8be 901b 57be 9b10 2a3e
000002e0: 06c1 2f3d 89cd 8abe 175f 32be ab3d 3ebe
000002f0: 3a3f cfbe 8ad8 dfbd 49a2 65be dbeb 0e3c
00000300: d78d 57be 385f 50be 5f8a c9be bf16 b4be
00000310: b8d3 2cbd 3202 3bbe 58a6 eabd f3e4 fe3d
00000320: fff1 bf3d 7488 fcbd fbac 60be 320e 63be
00000330: 5622 cfbe 4eac 68be 1559 c1bd 3ba7 c0be
00000340: 53cc 8bbe 4bae b7bd e2f0 40be fe69 81be
00000350: d344 b3be 4cc1 b3bd 5c83 87be 8064 48be
00000360: 34d4 9cbd 9329 7ebe 641d f0bd 86cd 9bbe
00000370: fec8 1bbd 7ec9 56be 3bb7 e7bd a0bb 9c3c
00000380: 6f87 e33c 96b8 fcbd 5818 cebc 7a20 ab3d
00000390: a00f f1be b60a 733e 2947 dc3c e1e2 0bbe
000003a0: a5ab a9bd cbb4 9ebe 4a89 0dbe e526 55bd
000003b0: 3c9f b1be e387 c2be da5e c6be 1c9d 3cbd
000003c0: 06c5 30bd 01e1 68be c971 a2be ed97 03bd
000003d0: 97ae 86be aa85 79bd e7c1 2ebd 6f52 55be
000003e0: fd27 3dbe c4d3 9abe f363 a6bd 9236 1dbe
000003f0: 3d36 58be 0b3f 953a 4db7 d9bd 4f17 26bd
-0.28301936 -0.08148808 -0.007616104 -0.26417097 -0.19407153 -0.25339627 -0.3108819 -0.22582495
-0.20638663 -0.0021903457 -0.2554657 0.032677032 -0.46240926 -0.22008447 -0.14132611 -0.09752197
-0.16255097 -0.30359468 -0.06392885 -0.36312345 -0.18021846 -0.20162919 0.051858425 -0.30061758
-0.36610276 -0.37091324 0.058313385 -0.28288132 -0.45471287 -0.36555263 -0.16577905 -0.13253108
-0.1358351 -0.021166794 0.02122448 -0.20351137 -0.3021937 -0.035054393 -0.35174 -0.29968408
-0.055886086 -0.10542019 -0.16326073 -0.16214657 -0.1119596 -0.24699503 -0.0059368107 0.044159193
-0.057307694 -0.14199246 -0.14780751 -0.11309176 -0.16827136 -0.32462153 -0.14312299 -0.2573033
0.24764852 -0.16216542 -0.1264759 -0.20679596 0.12943617 -0.22988516 -0.27938572 -0.19085352
-0.38829696 -0.2240835 -0.14786516 0.028492445 -0.16918431 -0.14856802 -0.41643807 -0.28948718
-0.5397982 -0.3579945 -0.1392479 -0.26210222 -0.23376574 0.040319894 -0.10441874 -0.21208726
-0.32112435 -0.28896898 -0.26310605 -0.5056416 -0.26612094 0.010322902 -0.10945397 -0.19426446
-0.023758328 -0.13025223 -0.30450478 -0.06789509 -0.037962943 -0.25686818 -0.42252252 -0.11987157
-0.13526471 -0.36174548 -0.30957302 -0.014343103 -0.19319291 -0.1031345 -0.19493869 -0.03482857
-0.24193934 -0.34849593 -0.22159466 0.047604583 -0.16364588 -0.14332792 -0.13256694 -0.4824177
-0.09921794 -0.16438258 -0.03768131 -0.011162158 -0.3281799 -0.45721048 -0.19513103 -0.18202835
-0.099902615 -0.27375102 -0.101952136 -0.2567807 -0.27575958 -0.16028902 -0.35407394 -0.42029825
-0.23293301 -0.30610383 -0.20091337 -0.19260727 -0.23665418 -0.36766088 -0.26105103 -0.45017728
-0.30501944 -0.18534558 -0.22719726 -0.11335304 -0.27064115 -0.0797765 -0.24823779 -0.36168003
-0.29637408 -0.23176955 -0.27657017 -0.18957621 0.05914798 -0.2600089 -0.20125492 -0.22311074
-0.11630651 -0.17178708 0.0024280122 -0.41830367 0.042072486 -0.033486057 -0.17096174 0.022889594
-0.48450685 -0.15665103 -0.37288448 -0.21103285 0.0085141165 -0.15555795 -0.18363784 -0.06620565
0.19932352 -0.31900433 0.1921925 -0.12886153 -0.36507913 -0.2959199 -0.40461683 0.052787464
-0.112511165 -0.15348971 -0.14535932 -0.19217542 -0.1601815 -0.3288829 -0.21006608 0.16607897
0.04290869 -0.27109936 -0.17419086 -0.18578212 -0.40477926 -0.109299734 -0.22425188 0.0087232245
-0.21050201 -0.20348823 -0.3936338 -0.35173604 -0.0421941 -0.18262556 -0.11457509 0.12446012
0.09372329 -0.12330714 -0.21940987 -0.22173384 -0.40455884 -0.22721979 -0.09440819 -0.37627587
-0.27304325 -0.089687906 -0.1884189 -0.25276178 -0.35013446 -0.08777103 -0.26467407 -0.19569588
-0.07657662 -0.24820547 -0.11724356 -0.3043024 -0.038033478 -0.209753 -0.11314245 0.019132435
0.02777454 -0.123398945 -0.025158092 0.08355804 -0.47082233 0.23734555 0.0268894 -0.13660766
-0.08284692 -0.3099731 -0.13821903 -0.052039046 -0.346918 -0.37994298 -0.3874424 -0.04604827
-0.043156646 -0.22742082 -0.31727436 -0.03212731 -0.26305076 -0.060918488 -0.04266539 -0.20832227
-0.18472286 -0.3023969 -0.081245326 -0.15352848 -0.2111444 0.0011386586 -0.10630665 -0.040549573

layers.1.weight f4 [128, 260]
00000000: 05d1 973c a17f 8abe d4e1 dd3c d633 c2bd
00000010: 7bad 57be afab 50be 3ebe b0be 7df6 10be
00000020: fd46 5fbe 4849 30be fe28 d63d d50d c63d
00000030: b3d1 03bf bc14 d7bd 9e7f 95be 2499 03bf
00000040: d3a5 d1bd a72f a33d f449 16be 9f35 a4bc
00000050: bc3d 893b 973c 54bf b4df 3abe 87e3 2abe
00000060: 261c 79be 4c70 a23d 3d06 063d f727 2e3d
00000070: 2e65 acbe 29b0 e6be 1c6a 473e a0bb 8ebd
00000080: 7ba3 8d3e e7a3 f53c cc6f c43d 86d9 87be
00000090: 45ca febe a994 763e f1be a43e 1f4a c6be
000000a0: d040 1bbf 608c ddbe 4b17 873e cdf4 75be
000000b0: 1a72 23be 19aa d1be 9ab7 dfbd 40ba 8fbe
000000c0: c125 223e 94d3 c5be 14e3 71ba d09e 813e
000000d0: da3b 3f3e e728 0bbc 276b 0a3e 3a8d f7be
000000e0: c002 87bd d768 b2be cf5f 4c3e 1ee5 06bd
000000f0: 6807 a6be b257 8abe 4952 5cbe 28f4 563e
00000100: 4c66 dabe d691 74be d82b 47be 9685 e0be
00000110: 60f2 05bf e24a c83e d047 9e3d 4606 84be
00000120: 3de2 76be 61a0 edbd 15f0 e83d 5e2e 1dbe
00000130: e69c cbbe 41bd 2dbe 308d e6bd 6d9c e3ba
00000140: 8e5f 043f 4e55 6a3e 5afb f83d 2685 3a3e
00000150: 02d7 fabe 7b6e fabe a99f f53d 4e36 d3be
00000160: d5e9 6c3e c690 8e3e 6c5c 0f3d 999f cfbd
00000170: 5ee5 81bd 3672 8dbe 2842 c8bd d4e5 03bd
00000180: e1ec f7be 4aa5 6abf 6711 c33d 4f36 57bc
00000190: c0cc babe cc91 5cbe 24ee e0bd 6d86 bfbe
000001a0: e102 d6be 222b 3b3d eb04 5fbe 4d3c 0dbe
000001b0: cd83 cebd 5ba8 68be 282c 58bb 819b 42bf
000001c0: 777a d0be 40df 06bf 8402 9d3e 0604 cebe
000001d0: 5e04 b8be cd01 4ebe b356 bfbe 0b53 9abd
000001e0: ab24 593e 3843 3cbd b614 48be d85c ce3d
000001f0: 1fa4 e2be 1542 7ebf ded5 4bbe 96b8 efbe
00000200: a8fc 47be c657 a3be cd24 c4be 8b80 41be
00000210: 5741 a3bc 23bb 99bd c654 29be 5ea9 b1be
00000220: afe1 d0be 3cb0 49be 4ae0 30bd 757e 9b3c
00000230: d6fb f3bc 52ce ed3d dd1a 643d ddda 34bf
00000240: 8ebb 85be ab68 3a3e acbc ccba d386 f2bc
00000250: 6b98 82be 5d6c 6ebd fd4a 8cbe e7c7 01bf
00000260: b86e d6bd 2457 a53d 4674 3dbf 5ad0 37bf
00000270: f2f8 b03e 5e64 4fbf d6c6 1dbe a413 7a3e
00000280: 1a72 d73c 36a1 86be f864 c13c 0e3f e9be
00000290: b684 44be 1b41 94be e596 b9bc baef a23d
000002a0: 0abf 853d 56eb fa3d 93b7 2c3d 7739 04be
000002b0: 97a6 51be 70bf 843d 4cea f6bc a42f d8be
000002c0: 57e3 04be d35a 02be b874 dbbd b298 33be
000002d0: 80ea f63d c1ea 9abe 9379 833d 40af 3abe
000002e0: a1ef a2be 29bf ecbd 739d cbbd 9f35 793e
000002f0: ec77 50bf 4060 afbd 8cb8 43bf 0268 a8bd
00000300: 1599 0abf 4032 95bf 1e92 693b 5e3e f7be
00000310: 5a84 18be cefe bb3e 4626 623e 76d2 e4be
00000320: e3c0 dcbd 4a18 753e ddca b1be a7c7 843d
00000330: 2cae 8abc e959 113e 3802 acbe 406e 26bd
00000340: 0b3e 983d 6dff 003e 50fc d8be 9970 1abf
00000350: 1a63 c9bd 7b39 f3bd d07a 913d a6be 23bd
00000360: 23ff 803e 5d15 e0be 773d aebe 6326 d23d
00000370: 76d5 4f3e 8d06 b4bc 3748 62be b336 5b3d
00000380: b9b1 9f3e 5762 10bd eeb4 dcbe 21bf 0c3e
00000390: 050e b9be 08fd 2e3d 87ca fdbe d599 c93d
000003a0: ccd0 9fbe a0d5 ca3d d77d 1ebf 3ce7 953d
000003b0: 2e7b b6bd 810e 343e 0e1e d7bd 8cad 59be
000003c0: 97bc dcbd c74e 9f3d 86cf aebe 5d44 99bd
000003d0: 66cc 273d cfff 00be 225a f73d 8e98 e4bd
000003e0: f52f a9bc fbb5 e8bd 19c7 023d 463d 5b3b
000003f0: 66bc 0b3d 9c26 09bf 8380 f13c 3c1c 41be
0.018532285 -0.27050498 0.027085222 -0.09482543 -0.21062271 -0.20377992 -0.34520143 -0.14156528
-0.21804424 -0.17215455 0.104570374 0.09670607 -0.5149185 -0.10502002 -0.29198927 -0.5140555
-0.102367066 0.07968073 -0.14676648 -0.0200451 0.0041882675 -0.8290495 -0.18249398 -0.16688357
-0.24327144 0.07931575 0.032720793 0.042518582 -0.33670944 -0.45056275 0.19474071 -0.069693804
0.27663788 0.029985381 0.09591636 -0.26533145 -0.49763694 0.24080147 0.32176927 -0.38728425
-0.6064577 -0.4327116 0.2638496 -0.24019165 -0.15961495 -0.40950087 -0.10923691 -0.28071785
0.15834714 -0.38637984 -0.00092272577 0.25316477 0.18675175 -0.008493639 0.13517438 -0.48349935
-0.065923214 -0.3484561 0.19958423 -0.032933347 -0.32427526 -0.2702003 -0.21515764 0.20991576
-0.4265617 -0.23883757 -0.19450319 -0.43851918 -0.5232296 0.3911963 0.07728541 -0.25786036
-0.2410974 -0.116028555 0.11373917 -0.15349719 -0.39768142 -0.16966726 -0.11257398 -0.0017365344
0.51708305 0.22884104 0.121573165 0.18214855 -0.48992163 -0.48912415 0.119933434 -0.4125237
0.23136075 0.27844828 0.03500025 -0.10137863 -0.063425764 -0.276262 -0.09778243 -0.032201603
-0.48422912 -0.9165846 0.095248036 -0.013135507 -0.36484337 -0.21539992 -0.10982922 -0.37407246
-0.4179907 0.04569543 -0.2177922 -0.13792534 -0.10083733 -0.22720473 -0.0032985304 -0.7601853
-0.40718433 -0.526844 0.30665982 -0.40237445 -0.35940832 -0.20117874 -0.37370834 -0.075353704
0.21205394 -0.045962542 -0.1953915 0.10076302 -0.4426584 -0.99319583 -0.19905803 -0.46820515
-0.19529974 -0.31902903 -0.38309327 -0.18896692 -0.019928617 -0.075063966 -0.16536245 -0.3469953
-0.40797183 -0.19696134 -0.04318265 0.018981198 -0.02978317 0.11611618 0.05568968 -0.7064646
-0.26119655 0.1820399 -0.0015620193 -0.029605305 -0.2550691 -0.058208812 -0.27400962 -0.5069565
-0.10470337 0.080732614 -0.74005544 -0.71802294 0.3456493 -0.81012523 -0.15407881 0.24421555
0.026299525 -0.2629487 0.023607716 -0.4555592 -0.1919125 -0.28955922 -0.02265496 0.079558805
0.065305784 0.12251918 0.042167258 -0.12912546 -0.20473705 0.06481826 -0.030141018 -0.42223847
-0.12977348 -0.12729959 -0.10715622 -0.17538717 0.12056446 -0.30257228 0.06419673 -0.18230915
-0.31823447 -0.115598984 -0.099421404 0.24336861 -0.81432986 -0.0856328 -0.7645347 -0.08222963
-0.54139835 -1.165596 0.003564007 -0.4828977 -0.14894238 0.36717838 0.22084913 -0.4469182
-0.10778978 0.23935047 -0.34725085 0.06483393 -0.016928755 0.14194454 -0.33595443 -0.040632486
0.07433709 0.12597437 -0.4238 -0.6032806 -0.09833355 -0.11876198 0.07103503 -0.03997674
0.25194654 -0.437663 -0.3403127 0.10261228 0.20296273 -0.02197578 -0.2209786 0.053518962
0.3119028 -0.035250034 -0.43106788 0.13744785 -0.3614351 0.04272178 -0.4956858 0.09843794
-0.31213987 0.09904027 -0.61910766 0.07319495 -0.089102134 0.17583658 -0.10503779 -0.21257609
-0.10778158 0.077786975 -0.34142703 -0.074837424 0.040966414 -0.12597583 0.12077738 -0.1116191
-0.02065275 -0.11362835 0.031928156 0.003345327 0.034115218 -0.5357454 0.029480224 -0.18858427

layers.1.bias f4 [128]
00000000: 28c5 39bd f445 1d3e 7bad 673d 6d09 053e
00000010: f038 873d 8fe4 83bd 8d7d 643e 4be2 393e
00000020: fef0 8e3d ef70 313e 4c53 3dbd 86ee 113e
00000030: 1574 8f3c 8b88 fd3d ad5e 163e 714c 0d3e
00000040: 0324 823e 54f0 ca3c cc4c aa3d 5b51 793e
00000050: 88bf 3fbe 215a 923d c021 d93d a5a2 883e
00000060: 69a4 7c3e 54ef 073e dce0 3f3e 178d 3d3e
00000070: 9de9 373e 0a37 843e eb0d 7cbd db86 cabc
00000080: 4725 003e 6c2e aa3d 71b8 90be 6e88 003e
00000090: 7300 183d 3f03 8bbd 63e8 1c3e ee9c 303e
000000a0: d58c d2bd 1dcc aa3d 788b 393e e80f 553e
000000b0: 88bf b73d 27e9 183e 1730 643e 802c 8abe
000000c0: 661d 033e 6ee7 f8bd 9c8d 4d3e d2d8 f83d
000000d0: 913a 0f3e feb3 e63d fbe7 6f3e c0f5 693a
000000e0: 27b8 153e 0c20 ba3d 1bcf 263e 532c 443e
000000f0: 46f0 2e3e f004 04bc c111 2e3e c86b 3b3e
00000100: d52d 84bd 2e1a 2b3e 693a 393e fe91 053e
00000110: da21 3d3e b4f1 86bd 4d43 453e b95a 273e
00000120: df8d 8d3d bf96 88be 7e40 fb3d df13 5f3c
00000130: 810f 3f3e a238 d93d b5ea 873e c6ef 90bd
00000140: a43b 3f3e 9d7b 653e e67b cdbd d9ae 853d
00000150: ddd5 4d3e bb23 703e 8d27 e03d b31c 8bbd
00000160: 6923 8abc 171e 333e 068f 6cbe f4cf c73d
00000170: e2b0 123e 07a1 be3d e6fe 1cbd 8d2f 743e
00000180: f474 b23d 9b13 6d3e 636b 953d e352 1a3e
00000190: 2196 d53d 78eb 063d 527e e0bd 5ba4 ff3d
000001a0: d809 7a3e 7dfe f6bd 2328 313e ad77 b1bc
000001b0: d141 5c3d 3f32 bfbd 7ea0 a43d aff5 813d
000001c0: 1cf5 1e3e 2578 6c3d 64d8 e13d 9dc9 2e3e
000001d0: 8502 b73d 51f3 073e 2d32 883d 319a 483e
000001e0: 82c5 793e e389 6e3d fec8 293e 40e2 bf3d
000001f0: 9d88 50be ab59 abbd 68b1 533e d479 bdbd
-0.04535404 0.15358716 0.05656193 0.12991877 0.06602657 -0.064400785 0.22313519 0.1815273
0.06979559 0.17328237 -0.046222016 0.14251146 0.017511407 0.12379559 0.14684553 0.13798691
0.254181 0.0247728 0.08315429 0.24347441 -0.18725407 0.07146097 0.106021404 0.26686588
0.24672092 0.1327489 0.18738121 0.18510853 0.1796021 0.2582324 -0.06153671 -0.024722507
0.1251422 0.083096355 -0.28265718 0.12552044 0.037109803 -0.067877285 0.15323023 0.17247364
-0.10280768 0.08339713 0.1811961 0.20806849 0.089720786 0.1493269 0.2228397 -0.26987076
0.12804183 -0.12153517 0.20073551 0.1215073 0.13987185 0.112647995 0.23428337 0.0008924864
0.1462103 0.09088144 0.16289942 0.19157533 0.17083845 -0.008057818 0.1699896 0.18302834
-0.06454054 0.16709206 0.18088688 0.13043973 0.18469945 -0.0658907 0.19263954 0.16343202
0.069118254 -0.2667751 0.1226816 0.0136155775 0.18658258 0.10606505 0.26546255 -0.07076983
0.18675095 0.22410436 -0.100333974 0.0652749 0.20101114 0.2345113 0.10945044 -0.06792583
-0.016862588 0.17491947 -0.23101434 0.09756461 0.14325288 0.09308057 -0.038329028 0.23846264
0.08713713 0.2315201 0.07295873 0.15070681 0.104290254 0.032939404 -0.10961594 0.1248252
0.24417818 -0.120602585 0.17300467 -0.021663511 0.053773705 -0.093357556 0.08038424 0.063456886
0.1552319 0.057731766 0.11027601 0.17069097 0.089360274 0.13276412 0.06650195 0.1959007
0.2439175 0.058236968 0.16580579 0.09369326 -0.20364614 -0.08366712 0.20673144 -0.092517525

output.weight f4 [1, 128]
00000000: 8820 51bf b51e f13c cba6 5abd 1cf1 ca3c
00000010: 7df6 1fbd b47b 58bd 2cdc ba3c a8d9 ccbc
00000020: 2d14 41bd 5cb4 ce3c 866e 60be 916b 12bd
00000030: a36b 043d 6334 aa3c f796 9e3c 52b0 ebbc
00000040: 483f ea3c fb82 02be 3887 333d d37b da3c
00000050: 443d bebd 57de 09bd aafd bd3c e556 e03c
00000060: 953c c83c 2958 b83c 31c1 093d db7e 923c
00000070: a7c7 f93c edf9 b33c da8c 09be 33ae 39bd
00000080: 58e0 a93c e623 a73d e65c 8dbd f16d 1abd
00000090: bc41 89bd e0e8 51bd fd42 243d 096b 06bd
000000a0: 3fd4 c7bd 6b11 e7bc 0cfe ef3c 9a1d b33c
000000b0: daff c63c c9ba c03c 2ee5 be3c dcc9 0cbe
000000c0: 6cc6 fcbc b5b6 17bf a856 e93c dc54 273d
000000d0: 418e 603d 9171 983d 674f 2a3d 889d 99be
000000e0: 228c cb3c aca6 1dbd a914 08bd c8a3 a93c
000000f0: e15c 0e3d 9979 0dbd 6124 b03c 1d24 aa3c
00000100: 730d 4fbd a193 05bd 038f d93c 11c0 05bd
00000110: 12c4 ad3c cf82 5bbe c5ec a43c b42a aa3c
00000120: 830a fdbc a69b 25be 6ab6 6d3d 2966 ad3d
00000130: 18d6 d23c 379a c23c e7ce 013d 154b c2bd
00000140: 5598 0b3d f082 263d 21b8 4bbe 5da8 31bd
00000150: 4db9 03bd be48 e03c 63be 863d 62e8 f3bd
00000160: 7813 92bd b8b8 b53c 3c26 bdbe 09ac ffbc
00000170: 03ff d93c 1e35 12bd dca6 01be 219b c83c
00000180: 0e98 0bbd 40a2 dc3c 1658 a43c c4fe 0cbd
00000190: 6468 debc f760 17bd d931 25bd b7a6 e83c
000001a0: 91cc fc3c b6db c3bd 9f58 1ebd 7152 f8bc
000001b0: f8d7 0a3d b328 c0bd 305a e0bc 9006 07bd
000001c0: 9ed0 013d 2935 b03c a5ed b43c d36e f6bc
000001d0: 09fd 03bd 42a9 74bd 4edd 20bd ed4a 2c3d
000001e0: 6f4c f73c 7cd2 f83c 3bf2 5f3d cd57 cb3c
000001f0: 8924 e2bd bbb7 57be d9d3 1f3d 0b83 eabd
-0.81690264 0.029433588 -0.053381722 0.024773173 -0.03905343 -0.052852347 0.022810064 -0.02500613
-0.04713838 0.025232486 -0.21917161 -0.035747115 0.032329213 0.020776933 0.019359095 -0.0287706
0.028594628 -0.12745278 0.043830127 0.026670372 -0.09289029 -0.033659305 0.023192246 0.027385185
0.02444295 0.022502976 0.033631507 0.017882755 0.03049071 0.02196976 -0.13432637 -0.045332145
0.020736858 0.08161144 -0.069024846 -0.037702505 -0.06701991 -0.051247478 0.040102948 -0.03281692
-0.097572796 -0.028206548 0.029295944 0.021864701 0.024291921 0.023526566 0.02330264 -0.13748878
-0.030856334 -0.59263164 0.028483704 0.040852413 0.054823164 0.07443536 0.04157963 -0.30003
0.024847094 -0.03848903 -0.033222828 0.02070798 0.034756545 -0.034539793 0.021501722 0.020769173
-0.050549936 -0.032611493 0.026557451 -0.032653872 0.021211658 -0.21436618 0.020132432 0.020772316
-0.030888801 -0.16172656 0.05803529 0.08466751 0.025736853 0.023755176 0.031691458 -0.09486977
0.034080822 0.040652215 -0.19894458 -0.043373454 -0.03215914 0.027378436 0.06579282 -0.11909558
-0.071326196 0.022182807 -0.36943233 -0.031209962 0.026610857 -0.035695188 -0.12661308 0.024488034
-0.034080558 0.026932836 0.020061534 -0.03442265 -0.027149387 -0.036957707 -0.04033074 0.028399808
0.030859264 -0.09563391 -0.038658734 -0.030312749 0.03389737 -0.09382763 -0.027386755 -0.032965243
0.031693093 0.021509724 0.022085974 -0.030082142 -0.032223735 -0.05973173 -0.039273553 0.042063642
0.030187814 0.030373804 0.05467437 0.02482214 -0.11042125 -0.21066181 0.039020393 -0.11450776
