p2_continuous-control/checkpoint_actor.pth (torch_old, 170518 bytes, 10 tensors)

normalizer.weight f4 [33]
0	0x3f9ac431	1.2091123
1	0x3f8daf74	1.1069169
2	0x3fa6e078	1.3037252
3	0x3e4c16b0	0.1993053
4	0x3e8143a7	0.25246927
5	0x3e2f00af	0.17090105
6	0x3debee74	0.11520091
7	0x3ef4a82f	0.47784564
8	0x3f3249ae	0.69643676
9	0x3ee92d3d	0.45542327
10	0x3f79e642	0.9761697
11	0x3f81c059	1.0136825
12	0x3f610630	0.87900066
13	0x3fef4503	1.8692936
14	0x3fc78ed6	1.5590465
15	0x3fd3ff0b	1.6562208
16	0x3e54e1f0	0.20789313
17	0x3dca828e	0.098881826
18	0x3db8352a	0.08994515
19	0x3e330f77	0.17486368
20	0x3f143228	0.5788903
21	0x3f25d33f	0.6477546
22	0x3f46701f	0.77514833
23	0x3fb509cb	1.4143614
24	0x3f984194	1.1895013
25	0x3fa820da	1.3135026
26	0x3fce74f6	1.6129444
27	0x3e614ea8	0.22002661
28	0x3fc750f5	1.5571581
29	0x3e83a066	0.25708312
30	0x3d3b9670	0.045797765
31	0x3e33b898	0.17550886
32	0x3ffcba0d	1.9744278

normalizer.bias f4 [33]
0	0x3bc26f61	0.0059336876
1	0xbe988e0c	-0.29795873
2	0x3de0d43e	0.10977982
3	0xbcdfc008	-0.027313247
4	0x3d8be79a	0.06831284
5	0x3e1f8c16	0.15580782
6	0xbe25f39c	-0.16206211
7	0xbe0626ed	-0.13100787
8	0x3eb774fc	0.3583144
9	0xbeacebe3	-0.33773717
10	0xbd476625	-0.048681397
11	0x3cd08600	0.025454521
12	0xbe265d36	-0.16246495
13	0x3e8b93de	0.2726125
14	0xbe5db4bd	-0.21650977
15	0xbe1034d9	-0.1408266
16	0x3db4f4ae	0.088357314
17	0x3e4a500b	0.19757096
18	0xbe29a888	-0.16568196
19	0x3de924a4	0.11383942
20	0x3e752a77	0.2394198
21	0xbdb0dbc4	-0.08635667
22	0xbe27f608	-0.16402447
23	0xbe131672	-0.14364031
24	0xbd284d2a	-0.041089214
25	0xbe7dad63	-0.24773173
26	0x3e0b24d1	0.13588263
27	0xbeadfd4b	-0.3398231
28	0xbda3858a	-0.07984455
29	0xbec75e9f	-0.38939378
30	0x3ec8e63f	0.39238164
31	0x3ecffd37	0.40622875
32	0x3d0c38d9	0.0342339

normalizer.running_mean f4 [33]
0	0x3f9a701e	1.2065465
1	0xbff6ce47	-1.9281701
2	0xbf0a576a	-0.54039633
3	0x3e09c394	0.13453513
4	0x3c44766a	0.011991123
5	0x3cc548ca	0.02408256
6	0xbc92fa29	-0.017941551
7	0x3d03d7a3	0.03218807
8	0xbca8b59e	-0.020594414
9	0x3d1f2687	0.038855102
10	0x3d1946f8	0.037421197
11	0xbbc2b2ef	-0.0059417407
12	0xbbc96438	-0.00614598
13	0x3feb8759	1.840068
14	0xc0529a44	-3.2906656
15	0xbf936cf3	-1.1517624
16	0x3c5e73c8	0.013577409
17	0xbc5ea6d5	-0.013589581
18	0xba14c22f	-0.00056746876
19	0xbc24725f	-0.010037034
20	0x3f986ce5	1.1908232
21	0x3dea8dd0	0.1145283
22	0x3f38650d	0.7202919
23	0xbcc0fcca	-0.02355804
24	0x3d07e24b	0.033174794
25	0xbd7553f8	-0.059894532
26	0xbe0eecd5	-0.13957532
27	0xbf7ffffc	-0.99999976
28	0xbcf9df91	-0.030502113
29	0x00000000	0.0
30	0x3f7ffffc	0.99999976
31	0x00000000	0.0
32	0x3c3640a7	0.011123813

normalizer.running_var f4 [33]
0	0x4092e4d8	4.590435
1	0x3fefe9a4	1.8743176
2	0x40850b2f	4.157615
3	0x3edd3771	0.4320636
4	0x3df3bf6f	0.119017474
5	0x3e94f334	0.290918
6	0x3e0da1c7	0.13831244
7	0x40025c91	2.0368998
8	0x3e537c62	0.20652917
9	0x3eaabdeb	0.3334802
10	0x40c0dfb1	6.027306
11	0x40d3b565	6.615893
12	0x40f52d83	7.6618056
13	0x418d3d9c	17.655083
14	0x40c3f5f3	6.123773
15	0x41913278	18.149643
16	0x3e812b74	0.25228465
17	0x3e7d9e91	0.2476752
18	0x3e6e3e43	0.23265938
19	0x3e88cabf	0.26717183
20	0x40a55786	5.166934
21	0x3fe58930	1.7932491
22	0x403e1f42	2.9706578
23	0x416a341f	14.637725
24	0x41a2c6a0	20.346985
25	0x41964808	18.785172
26	0x41ff36c1	31.901735
27	0x00000004	6e-45
28	0x420048fd	32.071278
29	0x00000004	6e-45
30	0x00000004	6e-45
31	0x00000004	6e-45
32	0x3eb27380	0.34853745

layers.0.weight f4 [256, 33]
0	0xbe1a5579	-0.15071668
1	0x3c034267	0.008011437
2	0xbded6519	-0.115915485
3	0x3c06678a	0.008203397
4	0xbd752d8f	-0.0598579
5	0xbc37d3ff	-0.011219977
6	0x3e153e2d	0.145745
7	0x3eaeaf44	0.34118092
8	0x3dd33976	0.10313694
9	0xbda09ba2	-0.078421846
10	0xbe113c27	-0.14183103
11	0xbbf4792d	-0.0074607343
12	0xbe2692f6	-0.16266999
13	0x3d1f29c7	0.0388582
14	0x3bbe8392	0.0058140242
15	0x3e8023cd	0.25027314
16	0x3bddbabe	0.006766646
17	0xbddc0096	-0.10742299
18	0x3d522d02	0.051312454
19	0xbd9e0849	-0.07716424
20	0x3e5d450a	0.21608368
21	0xbc6b5db0	-0.014365599
22	0xbe507ae5	-0.2035938
23	0x3cbb8ddf	0.022894798
24	0x3e2320f5	0.15930541
25	0x3e6f2a44	0.23355967
26	0x3e8eaaa0	0.27864552
27	0x3e4b8def	0.19878362
28	0x3e5800c3	0.2109404
29	0x3e93ab6e	0.28841728
30	0xbe3b9e3f	-0.18322085
31	0xbe8d99bd	-0.27656356
32	0xbecf7a1c	-0.4052285
33	0x3d92ef10	0.07174504
34	0x3d9b5b33	0.07585754
35	0x3c4e5849	0.012594291
36	0x3c350019	0.011047387
37	0x3d5bf686	0.0537019
38	0x3e113b88	0.14182866
39	0x3d0577d0	0.032584965
40	0xbe6119f1	-0.21982552
41	0x39833d38	0.0002503188
42	0x3e1df3da	0.15425053
43	0x3e4a629e	0.19764182
44	0x3dda6b0b	0.10664948
45	0x3e303502	0.17207721
46	0x3ed16077	0.4089391
47	0x3e1380b2	0.14404562
48	0x3c94e3ad	0.01817497
49	0xbd678751	-0.056525532
50	0xbc3cf5e6	-0.011533236
51	0x3c4e53d7	0.012593231
52	0x3e2be13c	0.16785139
53	0xbd842cb3	-0.06453838
54	0x3e1baeb4	0.15203363
55	0x3e2a77ce	0.16647264
56	0x3daa9886	0.08329873
57	0x3e197579	0.14986219
58	0xbd6a2e14	-0.05717285
59	0xbed6062d	-0.41801587
60	0x3cad698b	0.02116849
61	0x3d8b1087	0.06790262
62	0x3d541f52	0.051787682
63	0xbd819c31	-0.06328619
64	0xbdc97c0c	-0.09838113
65	0x3d9a18d6	0.07524268
66	0xbd4cca08	-0.04999736
67	0x3dd443f0	0.103645205
68	0x3cdb89b3	0.026799059
69	0xbd38c70e	-0.04511171
70	0x3d0329cc	0.032022282
71	0x3e499b62	0.1968818
72	0x3df4f339	0.119604535
73	0x3e71e3bb	0.23622029
74	0x3e3a5c2c	0.18199223
75	0x3eb70ce7	0.3575203
76	0xbe1dde78	-0.15416896
77	0xbe176730	-0.14785457
78	0x3d965a11	0.073413976
79	0xbe2a2d68	-0.16618884
80	0x3e041247	0.12897597
81	0xbe037fa6	-0.12841663
82	0x3c4be85d	0.012445536
83	0x3d067b51	0.032832447
84	0x3db11333	0.0864624
85	0xbbff6803	-0.0077943816
86	0xbdb0fa57	-0.086414985
87	0x3caf62be	0.021409389
88	0x3d8f1821	0.06987024
89	0x3b3c4d4a	0.0028732591
90	0xbe542f71	-0.20721222
91	0xbe6a7390	-0.22895646
92	0xbf0e1d88	-0.5551381
93	0x3e92035b	0.28518185
94	0x3e803884	0.25043118
95	0x3e86b469	0.26309517
96	0xbe9ff629	-0.31242493
97	0xbe6c3655	-0.23067601
98	0x3e339370	0.17536712
99	0x3df141c4	0.11780122
100	0x3cdb3289	0.026757495
101	0x3b9191f1	0.0044424464
102	0x3e3d6d27	0.1849867
103	0xbc54f4aa	-0.012997786
104	0x3c6217cf	0.013799622
105	0x3e0cec21	0.13761951
106	0x3db1d0be	0.086823925
107	0x3ded1d63	0.11577871
108	0x3c1042c1	0.008804978
109	0x3ddadcc2	0.106866375
110	0x3e0e1596	0.13875422
111	0xbc415516	-0.011800071
112	0xbdefe69d	-0.11713908
113	0xbd7ed4e8	-0.062214762
114	0x3e9a8c8f	0.30185363
115	0xbdc325d9	-0.09528703
116	0xbd97869b	-0.07398721
117	0x3caef645	0.021357665
118	0xbdd2f85b	-0.10301276
119	0xbe64f86f	-0.22360395
120	0xbdd32eac	-0.10311636
121	0xbe806de4	-0.2508384
122	0x3d224be0	0.03962314
123	0xbea3ebd7	-0.3201587
124	0x3e8b2720	0.27178288
125	0x3e284a38	0.16434562
126	0x3eb8babd	0.3607997
127	0x3e13241f	0.14369248
128	0x3edf01ea	0.43556148
129	0xbeb32ffc	-0.34997547
130	0xbeca3a62	-0.39497668
131	0xbde4c3ef	-0.11170184
132	0x3d8af64d	0.067852594
133	0xbe0f27e1	-0.13980056
134	0xbe4e6037	-0.2015389
135	0x3cc9b05f	0.024620233
136	0xbd692425	-0.056919236
137	0xbdb991f0	-0.090610385
138	0xbd8dc5bc	-0.069224805
139	0x3d510d8b	0.051038306
140	0x3d0f150c	0.03493218
141	0x3dd8aeb5	0.10580198
142	0xbdd817eb	-0.10551437
143	0xbdb088df	-0.08619856
144	0xbe8c53f0	-0.2740779
145	0xbe3d97ef	-0.1851499
146	0x3e1f07d6	0.15530333
147	0x3d8dc14e	0.069216356
148	0x3d2ba10a	0.041901626
149	0xbf01afbf	-0.5065879
150	0x3be6c85e	0.0070429286
151	0xbd1e1fbc	-0.038604483
152	0xbcc2d2bd	-0.023782128
153	0xbc514b61	-0.012774319
154	0xbdd771a8	-0.10519725
155	0xbcb727dc	-0.022357874
156	0xbe285477	-0.16438471
157	0x3e1ba12f	0.15198205
158	0x3ebab8f8	0.36469245
159	0x3c9c3066	0.019066047
160	0xbe55423b	-0.20826046
161	0xbca7916d	-0.020455087
162	0x3d48ce1b	0.049024682
163	0x3d938f2e	0.07205044
164	0x3ddd9835	0.10820047
165	0x3ce70f46	0.028205525
166	0x3e50a4be	0.20375344
167	0xbcf2b2c7	-0.029626263
168	0xbe3079cc	-0.17233962
169	0x3cfa2286	0.03053404
170	0xbe322432	-0.1739662
171	0x3da35840	0.07975817
172	0x3e175a01	0.14780428
173	0x3e3e7923	0.18600897
174	0x3e1c0aa4	0.15238434
175	0xbe66068f	-0.2246344
176	0x3c0236b6	0.007947614
177	0x3ddf8a32	0.109150305
178	0xbe77879c	-0.24172825
179	0x3e893989	0.26801708
180	0x3d13859f	0.036016103
181	0xbe53a6a6	-0.2066904
182	0x3dbda12c	0.09259257
183	0x3e0b36a3	0.13595061
184	0xbcd4c85c	-0.025974445
185	0xbe405581	-0.18782617
186	0x3e02de45	0.12780102
187	0x3b1ee870	0.002424743
188	0x3c1d885a	0.009615028
189	0x3df2772f	0.11839139
190	0x3c2315f4	0.0099539645
191	0x3e3eba07	0.18625651
192	0x3d76b0c1	0.06022716
193	0xbd091e47	-0.03347614
194	0x3d9595d5	0.07303969
195	0x3cb3d056	0.021949928
196	0x3be4dafb	0.0069841123
197	0xbe99fd30	-0.3007598
198	0x3e88dc23	0.2673045
199	0x3e6d0389	0.2314588
200	0xbe1e584b	-0.15463369
201	0xbcee62fd	-0.029099936
202	0xbdb3fb75	-0.08788196
203	0x3d3937e9	0.045219336
204	0x3e4f2c2a	0.20231691
205	0xbe967c91	-0.29391912
206	0x3d8f648c	0.070016
207	0xbc9928ec	-0.01869627
208	0x3e086d21	0.1332288
209	0xbd9bb98b	-0.07603749
210	0xbc3d7051	-0.011562423
211	0xbe0c4e60	-0.13701773
212	0xbe80a45f	-0.25125405
213	0x3daa7000	0.083221436
214	0x3d7dc1a9	0.061952267
215	0xbdf37eb3	-0.118894
216	0x3d709177	0.058732476
217	0x3e162d81	0.14665796
218	0x3e05bfd7	0.13061462
219	0xbe1f9745	-0.15585048
220	0x3d57ffad	0.052734066
221	0x3dc27d96	0.0949661
222	0x3c92690d	0.017872358
223	0x3d3eb1d3	0.046556305
224	0xbee8e6fb	-0.45488724
225	0x3ce7d3c1	0.028299214
226	0x3e2718ee	0.16318104
227	0xbbfad0cb	-0.0076542846
228	0xbd4add46	-0.04952743
229	0x3cd55a29	0.026043968
230	0xbec6f4ef	-0.38858745
231	0x3da64428	0.081184685
232	0xbe0b9b07	-0.13633357
233	0x3e72bdbb	0.23705189
234	0x3db116c5	0.08646921
235	0xbd9fd394	-0.07804027
236	0xbe5e127c	-0.21686739
237	0xbd28969b	-0.041159254
238	0xbe910b0a	-0.28328735
239	0xbd70c777	-0.058783974
240	0x3d89e950	0.06733954
241	0xbd21e079	-0.039520714
242	0xbe0296fe	-0.12752911
243	0x3dc8123f	0.09769105
244	0xbc5c2d4d	-0.013438535
245	0xbe47c1b0	-0.1950748
246	0xbe3d89c2	-0.18509582
247	0x3d7d67d1	0.061866585
248	0x3b7c2432	0.0038473723
249	0xbe17a05d	-0.14807267
250	0xbd989beb	-0.07451614
251	0xbe35e50d	-0.17763157
252	0x3dfce0cb	0.12347563
253	0xbd5151a7	-0.05110326
254	0x3e483092	0.19549778
255	0x3e0b99dd	0.13632913

layers.0.bias f4 [256]
0	0xbeb06582	-0.34452444
1	0xbe21ca58	-0.15799844
2	0xbe0fb8d6	-0.14035353
3	0xbf020940	-0.50795364
4	0xbdd3f400	-0.10349274
5	0x3e17092f	0.14749597
6	0x3c9f01aa	0.019409973
7	0xbd8da3fe	-0.06916045
8	0xbe282913	-0.16421919
9	0x3e11dcf5	0.14244445
10	0x3da81f70	0.08209121
11	0xbde6b899	-0.11265678
12	0xbdcff3d5	-0.10153929
13	0x3d24c0e8	0.040223032
14	0x3dcaf5ea	0.09910186
15	0xbe2b29f9	-0.1671523
16	0x3e3769de	0.17911479
17	0xbe109b4f	-0.14121746
18	0x3e1bf300	0.15229416
19	0xbea5117e	-0.32239908
20	0xbe22a37a	-0.15882674
21	0xbe2149b4	-0.15750772
22	0x3ddbee08	0.1073876
23	0xbdb70b96	-0.08937757
24	0xbd21f063	-0.03953589
25	0xbe77620b	-0.24158494
26	0xbbd0fa4f	-0.0063774954
27	0xbdbafade	-0.0912988
28	0xbe33c19d	-0.17554326
29	0xbe6d4d0b	-0.23173921
30	0xbd6ec702	-0.058295257
31	0x3d31307d	0.043259133
32	0xbd065f0e	-0.032805495
33	0xbd1469bf	-0.03623366
34	0xbd78e49a	-0.060764886
35	0x3e69884f	0.22805904
36	0xbce07f2d	-0.027404392
37	0xbee1c66b	-0.44096693
38	0xbe160558	-0.14650476
39	0xbd77d6f7	-0.06050774
40	0x3e033e41	0.12816717
41	0xbe815f0a	-0.25267822
42	0x3de80343	0.11328747
43	0xbdc5cf50	-0.09658682
44	0xbdd4e63a	-0.10395475
45	0xbe74e57a	-0.23915663
46	0x3d91fe50	0.071285844
47	0x3e530cd6	0.20610365
48	0xbe749752	-0.23885849
49	0xbe00740b	-0.12544267
50	0xbdd454d3	-0.103677414
51	0x3c1685e0	0.009187192
52	0x3d92affb	0.07162472
53	0xbd7e3ce3	-0.062069785
54	0xbcaa2609	-0.02077009
55	0xbc529d53	-0.012854892
56	0xbe18180c	-0.14852923
57	0xbe56d40e	-0.2097933
58	0x3e3eb2c7	0.18622886
59	0x3e765bc5	0.24058445
60	0x3bf14012	0.007362374
61	0xbe8be5fd	-0.27323905
62	0xbea7cc53	-0.32773075
63	0xbc333178	-0.010937087
64	0xbe4027cd	-0.18765183
65	0xbe45aba8	-0.19303763
66	0x3e20ceaf	0.15703844
67	0xbe44a9b4	-0.19205362
68	0x3e58998a	0.2115232
69	0x3e3227eb	0.1739804
70	0x3d18e426	0.037326954
71	0xbe9a01a1	-0.30079368
72	0xbe42ae54	-0.19011813
73	0x3e04f71f	0.12984894
74	0xbd8a3027	-0.067474656
75	0xbc757c1d	-0.014983204
76	0x3c99a094	0.018753327
77	0x3e1ee6f3	0.15517788
78	0x3b788ea9	0.003792683
79	0xbd8434a2	-0.064553514
80	0xbe553802	-0.20822147
81	0x3c45fd44	0.012084309
82	0xbe2b464e	-0.16726038
83	0xbe6b78f2	-0.22995356
84	0xbe87adea	-0.26499873
85	0x3e0efa63	0.13962702
86	0xbdc21f3a	-0.09478612
87	0x3da78803	0.08180239
88	0x3bf9fe0f	0.007629163
89	0xbe585fee	-0.21130344
90	0x3e73f019	0.23822059
91	0x3d5cf255	0.053942043
92	0x3a8d2487	0.0010768332
93	0x3da83daf	0.0821489
94	0xbeb6284e	-0.35577625
95	0xbeb2485e	-0.34820837
96	0x3c06e7a9	0.008233943
97	0xbdb72a77	-0.089436464
98	0xbe28f2ce	-0.16498873
99	0xbca9a324	-0.020707674
100	0xbe183a55	-0.14866002
101	0xbdec645b	-0.11542579
102	0x3e42c8c1	0.19021894
103	0xbd38709c	-0.045029268
104	0xbe4479db	-0.19187109
105	0xbda0c960	-0.07850909
106	0xbd173656	-0.036917053
107	0xbda914cc	-0.0825592
108	0xbe2df631	-0.16988446
109	0x3ab49dec	0.0013779975
110	0x3e2b4200	0.16724396
111	0xbd63e737	-0.055640426
112	0x3dbb8798	0.09156722
113	0xbe417bec	-0.18894929
114	0x3db98d0d	0.090601064
115	0x3e6755dd	0.22591348
116	0xbe9a4e78	-0.30137992
117	0xbe539d43	-0.2066546
118	0x3e09ad1f	0.13444947
119	0x3e6b9263	0.23005061
120	0x3d5e89df	0.054330703
121	0x3da07323	0.078344606
122	0xbd89666a	-0.06708987
123	0xbe42cb02	-0.19022754
124	0x3e0d276c	0.1378457
125	0xbea6370f	-0.3246388
126	0xbdee8aca	-0.11647566
127	0x3e0b5785	0.13607605
128	0x3b08ba1e	0.0020862888
129	0x3e968f4f	0.2940621
130	0xbd1398f9	-0.036034558
131	0x3d04201e	0.03225719
132	0xbe33ef89	-0.17571844
133	0xbeb6566f	-0.3561282
134	0x3c040c3e	0.008059559
135	0xbe4ed802	-0.20199588
136	0x3dc2cc28	0.09511596
137	0x3b3f4cf3	0.0029190152
138	0x3e7c82b4	0.24659234
139	0xbe6c61a4	-0.23084122
140	0x3cfe1482	0.031015638
141	0xbd3e3cd8	-0.046444744
142	0xbb81f3fb	-0.0039658523
143	0xbe4066b9	-0.18789186
144	0xbe4c475b	-0.19949095
145	0x3c03be2d	0.008040947
146	0x3ca772a7	0.020440413
147	0xbdbe95f8	-0.09305948
148	0x3d3c016e	0.0458998
149	0x3e24a4c4	0.16078478
150	0xbe19ec32	-0.15031508
151	0xbe004a37	-0.1252831
152	0xbdd5af91	-0.10433877
153	0x3e400e54	0.18755466
154	0xbe627ccc	-0.22117919
155	0x3d602a3e	0.054727785
156	0xbd640013	-0.055664133
157	0xbd54819b	-0.051881414
158	0xbe1e0597	-0.1543182
159	0xbe36a7af	-0.17837404
160	0xbd9acb01	-0.07558251
161	0x3e0f2d21	0.13982059
162	0xbe5798ce	-0.21054384
163	0xbe4e5e2c	-0.20153111
164	0x3bcc88c7	0.006241891
165	0xbf01ec30	-0.5075102
166	0x3e1920bd	0.14953895
167	0x3e73eb24	0.23820168
168	0x3e5a0cfe	0.21294019
169	0xbe45265a	-0.19252911
170	0xbdd6fb96	-0.10497205
171	0xbea8bc72	-0.32956272
172	0xbe23fb7a	-0.160139
173	0x3d0cd03d	0.03437828
174	0xbe49e2f2	-0.19715479
175	0xbd2b3fcf	-0.0418089
176	0x3e4235ba	0.18965808
177	0xbe8e10f1	-0.277473
178	0x3c1c15c0	0.00952667
179	0xbe63c1a9	-0.22241844
180	0x3da973ee	0.08274065
181	0x3d9f8a40	0.07790041
182	0xbdef762b	-0.116924606
183	0x3c61da37	0.013784937
184	0xbe82923a	-0.25502187
185	0xbea448f7	-0.32086918
186	0x3a4783dc	0.0007610896
187	0x3d129951	0.035790745
188	0xbe783b02	-0.2424126
189	0xbe098324	-0.13428932
190	0xbe872d79	-0.2640188
191	0x3e3cf4cd	0.18452759
192	0xbe5a3373	-0.21308689
193	0x3db74b4c	0.089499086
194	0xbe7d9f47	-0.2476779
195	0xbebc0731	-0.36724237
196	0x3e276fd0	0.16351247
197	0x3e1689e9	0.14701046
198	0xbe8f21fb	-0.27955613
199	0xbdca9079	-0.09890837
200	0x3d812c2c	0.06307253
201	0x3e38b16d	0.18036433
202	0xbc6fe7a3	-0.014642629
203	0x3e00ac18	0.12565649
204	0xbd8bda55	-0.06828753
205	0xbd844524	-0.064585
206	0xbb96817a	-0.0045930715
207	0xbde6c833	-0.11268654
208	0xbe8a44ba	-0.2700556
209	0xbe5941ab	-0.21216457
210	0x3cf40517	0.029787583
211	0xbd8cb432	-0.06870307
212	0x3caf0ae6	0.021367501
213	0xbe372f09	-0.17889036
214	0xbd1c6efd	-0.038191784
215	0x3e57dd3d	0.2108049
216	0x3dade7ba	0.08491464
217	0x3e0005ce	0.12502214
218	0xbe5f7e35	-0.21825488
219	0xbdde8660	-0.10865474
220	0x3d27a258	0.040926307
221	0xbe703ddf	-0.23461102
222	0xbdccc0cb	-0.0999771
223	0x3c7aa85d	0.01529893
224	0x3e2420ec	0.16028184
225	0x3d0f142e	0.034931354
226	0x3e0c25e7	0.13686334
227	0xbdb28d57	-0.08718365
228	0xbed40327	-0.41408655
229	0x3e3a328a	0.18183342
230	0xbd90afd6	-0.07064788
231	0x3ed18276	0.40919846
232	0xbe05d715	-0.13070329
233	0xbddeb9b7	-0.10875266
234	0xbe00dad1	-0.12583472
235	0x3e393814	0.18087798
236	0xbe12e17e	-0.14343831
237	0xbe4ea238	-0.20179069
238	0xbd3ba9cc	-0.045816228
239	0x3d7553fb	0.059894543
240	0x3da0dccf	0.07854616
241	0x3da4b3eb	0.08042129
242	0xbea09ed6	-0.31371182
243	0x3e05eecf	0.1307938
244	0x3d0c1331	0.03419799
245	0x3e03e342	0.1287966
246	0x3ecbc979	0.3980215
247	0x3e33ebde	0.17570445
248	0x3d082373	0.033236932
249	0xbd295ec3	-0.041350137
250	0x3dfdbc8b	0.12389477
251	0xbbee5893	-0.0072737425
252	0xbe4bb9da	-0.19895115
253	0x3e403053	0.18768434
254	0x3e10e517	0.14149891
255	0xbe2149b3	-0.1575077

layers.1.weight f4 [128, 256]
0	0xbe3173ad	-0.17329283
1	0xbdb0f017	-0.086395435
2	0x3da3c74d	0.07996998
3	0x3e8ba199	0.27271727
4	0xbe270bc7	-0.16313086
5	0xbe52573f	-0.20541094
6	0xbdf3214f	-0.118715875
7	0xbd3806a3	-0.044928204
8	0x3d45ab3b	0.048259
9	0x3e5323ba	0.20619097
10	0xbd7c9c82	-0.061672695
11	0x3f20a277	0.627479
12	0x3dcdaa5b	0.10042258
13	0x3dbe4b73	0.092917345
14	0x3dffe90f	0.12495624
15	0xbda37db2	-0.07982959
16	0xbca78dec	-0.020453416
17	0xbd9df4e2	-0.07712723
18	0xbd85c3cc	-0.06531486
19	0xbc6de7b4	-0.014520574
20	0x3e1d0625	0.15334375
21	0xbe16121d	-0.14655347
22	0x3e017f72	0.12646273
23	0x3da45e8c	0.08025846
24	0x3d22d4e0	0.039753795
25	0x3e13abaf	0.14420961
26	0xbe1dae29	-0.15398468
27	0x3e24ef2d	0.16106863
28	0x3c28004f	0.01025398
29	0x3d323d0b	0.043515246
30	0x3d9e94a9	0.077431984
31	0xbe19a3f5	-0.15003951
32	0x3dc3bb19	0.095571704
33	0xbe3631c1	-0.17792417
34	0xbb6f9f66	-0.0036563515
35	0xbc96133c	-0.018319719
36	0xbe9fe917	-0.3123252
37	0xb9e2a1f3	-0.0004322674
38	0x3e1d9262	0.15387872
39	0xbd524a15	-0.05134018
40	0xbdc6ab02	-0.09700586
41	0xbe0da0e0	-0.138309
42	0x3d488e20	0.048963666
43	0x3e5a088a	0.2129232
44	0x3dbe8aeb	0.0930384
45	0x3d1141e8	0.035463244
46	0x3dae48e4	0.085099965
47	0xbe112946	-0.14175901
48	0xbdd1e9ba	-0.10249658
49	0xbdca989e	-0.09892391
50	0x3d971006	0.07376103
51	0x3dbee8c8	0.09321743
52	0xba2572e6	-0.00063113717
53	0xbd210b5d	-0.039317477
54	0x3e5e0676	0.21682152
55	0x3cacc716	0.021091025
56	0xbdbf12b5	-0.0932974
57	0x3e3c5d79	0.18395032
58	0xbdd5422d	-0.10413013
59	0xbdb3f660	-0.08787227
60	0xbdd76ae3	-0.10518434
61	0x3d541757	0.05178007
62	0x3dcff6a6	0.10154466
63	0x3d177a97	0.036982145
64	0xbe093e7d	-0.13402744
65	0xbdaf25f9	-0.085521646
66	0xbde6f215	-0.11276642
67	0x3dd301c4	0.10303071
68	0x3d55a8a3	0.052162778
69	0xbe67805b	-0.22607557
70	0x3ab7e23d	0.0014029216
71	0x3d3d68a6	0.04624238
72	0x3cb5a882	0.022175077
73	0x3dc3ab35	0.095541395
74	0x3e697eed	0.22802325
75	0xbb60392e	-0.003421377
76	0x3d7ef32d	0.06224363
77	0xbe5786d1	-0.21047522
78	0xbd0fd165	-0.035111804
79	0xbd0f8c72	-0.03504605
80	0xbd850a7a	-0.06496139
81	0x3e278b8d	0.16361828
82	0xbe167f74	-0.14697057
83	0x3db4ae35	0.0882229
84	0x3e3c7a3f	0.18406008
85	0xbe730b73	-0.23734836
86	0x3dd7ec8a	0.10543163
87	0x3d2f715e	0.042832725
88	0x3b350ccf	0.0027626043
89	0x3ea9bc20	0.3315134
90	0x3e1b17c9	0.15145792
91	0xbd8cb0be	-0.068696484
92	0xbd551480	-0.052021503
93	0xbd98ec59	-0.07466955
94	0x3eaf98f2	0.34296376
95	0xbd52c57b	-0.051457863
96	0x3dc29c6d	0.09502492
97	0x3cc02464	0.023454852
98	0x3e73f07c	0.23822206
99	0x3e577334	0.2104004
100	0xbddc0e95	-0.10744969
101	0xbdf105c8	-0.11768681
102	0xbc973ebb	-0.01846253
103	0x3e7efa80	0.24900246
104	0xbbd6b0ad	-0.006551823
105	0x3e0fb386	0.14033327
106	0xbde0442c	-0.10950503
107	0xbe0434ae	-0.1291072
108	0xbb2ba5f0	-0.0026191436
109	0x3c4419a4	0.011969004
110	0x3d826f14	0.06368843
111	0xbc24563a	-0.010030324
112	0x3e016a04	0.12638098
113	0xbcbff1fe	-0.02343082
114	0xbd1eb63e	-0.03874802
115	0x3d1217d3	0.03566725
116	0x3c6e651c	0.014550474
117	0xbdfee0c3	-0.12445214
118	0x3e347549	0.17622866
119	0x3c9108b5	0.017704347
120	0x3d81093c	0.063005894
121	0x3e11a71a	0.142239
122	0xbd346a06	-0.044046424
123	0xbbdffaac	-0.0068353023
124	0xbdfbd83c	-0.12297103
125	0x3e0ca34b	0.13734166
126	0x3d7e2816	0.062049948
127	0xbe4426e1	-0.19155456
128	0xbd7e2de2	-0.062055476
129	0x3d744dcc	0.059644505
130	0x3d5b5777	0.05355021
131	0x3ca6e31a	0.020371962
132	0x3dd3f7a1	0.10349966
133	0x3dfef1ec	0.12448487
134	0x3d8798d9	0.0662095
135	0x3ca8eee1	0.020621719
136	0x3d93d59f	0.07218479
137	0x3d196de3	0.03745831
138	0xbdba197d	-0.09086893
139	0x3ed40437	0.41409466
140	0xbd88ada4	-0.06673744
141	0xbe068a4b	-0.13138692
142	0xbe327978	-0.17429149
143	0x3d37d6dc	0.04488264
144	0x3d67281f	0.056434747
145	0x3e5afb67	0.21384965
146	0xbdf46abb	-0.1193442
147	0x3d5b67fb	0.05356596
148	0x3db3440a	0.08753212
149	0x3d98c366	0.07459144
150	0x3dde9a37	0.10869258
151	0xbce4ba1d	-0.027920777
152	0x3d1b9c65	0.037990946
153	0xbe5872b4	-0.21137506
154	0xbdb96809	-0.09053046
155	0x3e49ea9a	0.197184
156	0xbec7f85f	-0.3905668
157	0xbdc5cbba	-0.096579984
158	0xbe04faae	-0.12986252
159	0xbe39f4e1	-0.1815982
160	0x3ab19936	0.0013549689
161	0xbee107e7	-0.43951342
162	0x3c18bdf2	0.00932263
163	0x3c2e6e90	0.010646477
164	0xbcb791b8	-0.022408351
165	0xbc935c1a	-0.017988253
166	0xbeb2671b	-0.34844288
167	0x3e8b089d	0.2715501
168	0xbcc11fcc	-0.023574732
169	0x3d8acec9	0.067777224
170	0x3cb3cf67	0.021949483
171	0x3e3d301b	0.18475382
172	0xbe402723	-0.1876493
173	0x3ba31baa	0.004977663
174	0x3dd4275e	0.10359071
175	0xbd24f136	-0.0402691
176	0x3d2e5602	0.042562492
177	0x3d19822c	0.037477657
178	0xbd18069f	-0.03711569
179	0xbe68ae61	-0.2272277
180	0xbea40e2b	-0.3204206
181	0xbdd0be29	-0.1019252
182	0x3e1ba809	0.15200819
183	0xbda986ea	-0.08277686
184	0x3eb8af30	0.36071157
185	0x3e35c061	0.17749168
186	0xbe8ecf57	-0.27892563
187	0xbc4d162e	-0.012517495
188	0x3d787fc5	0.060668726
189	0xbce59078	-0.02802299
190	0x3e9084e3	0.28226385
191	0x3e3b997c	0.18320268
192	0x3d5fff12	0.054686613
193	0xbe6c808b	-0.2309591
194	0x3cf4c757	0.029880209
195	0xbd9af27a	-0.0756578
196	0x3d9d709a	0.07687493
197	0xbd4ed315	-0.050494272
198	0x3db097c7	0.08622699
199	0x3e75b350	0.23994184
200	0xbcf45c78	-0.029829249
201	0xbebc8e16	-0.36827153
202	0xbdd18853	-0.1023108
203	0x3e0cacef	0.13737844
204	0x3ea28a2c	0.31746042
205	0x3dbc660a	0.0919915
206	0xbc9bfb80	-0.019040823
207	0xbd96bd45	-0.07360319
208	0x3d468e75	0.0484757
209	0x3bacec8e	0.005277223
210	0xbe4acede	-0.19805476
211	0xbe7d064e	-0.24709436
212	0x3dcff51f	0.10154175
213	0x3e3ec87d	0.18631168
214	0x3b95ec64	0.004575299
215	0xbde9067c	-0.1137819
216	0xbb9a1e75	-0.004703338
217	0x3d93950a	0.07206161
218	0x3e633329	0.22187485
219	0xbe054230	-0.1301353
220	0xbd64a956	-0.055825554
221	0x3dd2e3a3	0.102973245
222	0x3d088f14	0.033339575
223	0x3adff8e2	0.0017087723
224	0xbe034a42	-0.12821296
225	0xbe7d1705	-0.24715813
226	0xbe206669	-0.15664066
227	0xbe2b3034	-0.16717607
228	0x3eb3a223	0.35084638
229	0xbe3bbedb	-0.18334524
230	0x3e347be4	0.17625386
231	0xbd5228b1	-0.051308338
232	0xbd59684a	-0.053077973
233	0xbc49c525	-0.012315069
234	0x3d949f11	0.07256902
235	0x3d060b1e	0.032725446
236	0x3d7f3d9c	0.062314615
237	0xbd16ff84	-0.036864772
238	0xbe50f842	-0.20407203
239	0xbd5a27d4	-0.05326064
240	0x3ec9392d	0.39301434
241	0x3d28aa2a	0.041177906
242	0x3e1ace99	0.15117873
243	0xbcf17764	-0.029475875
244	0x3d9283ad	0.071540214
245	0xbd48d3b5	-0.049030025
246	0x3d487353	0.048938107
247	0x3d273d80	0.040830135
248	0xbe0b85cf	-0.13625263
249	0xbc9fd8b6	-0.019512516
250	0xbce4bab0	-0.02792105
251	0x3e0a1f15	0.1348842
252	0x3ea6bb86	0.32564944
253	0xbe5935d9	-0.21211948
254	0x3e06a3a5	0.13148363
255	0xbe20a6c3	-0.15688615

layers.1.bias f4 [128]
0	0xbcb4ac8b	-0.022054931
1	0x3dd9c8f0	0.10634029
2	0xbd154103	-0.036438953
3	0xbe253b08	-0.161358
4	0x3dff4b7c	0.124655694
5	0xbd2987e9	-0.04138938
6	0xbdf5f163	-0.120089315
7	0xbc82973d	-0.015941257
8	0x3dd0d33f	0.10196542
9	0x3c2f8206	0.010712152
10	0xbe4a21a7	-0.197394
11	0x3e113d03	0.1418343
12	0xbcf1b54f	-0.0295054
13	0xbdb2115d	-0.08694718
14	0xbd373d5c	-0.04473625
15	0xbde4d4f2	-0.111734286
16	0xbdf9fd54	-0.12206522
17	0xbe1218f7	-0.14267336
18	0xbd96ade0	-0.07357383
19	0x3cf4edb2	0.029898498
20	0xbd5969be	-0.05307936
21	0xbd4bccb7	-0.04975578
22	0xbd48c9e7	-0.049020674
23	0xbe46d00a	-0.19415298
24	0x3e5c567e	0.21517369
25	0xbdbc5e23	-0.09197643
26	0x3d9a3aa1	0.07530714
27	0xbd902213	-0.07037749
28	0x3df03f5a	0.11730833
29	0x3db942d8	0.090459526
30	0x3d4a86e4	0.049445048
31	0x3e4ba615	0.19887574
32	0x3e5de970	0.2167108
33	0x3dcb0200	0.09912491
34	0xbd2d0a3b	-0.042246085
35	0xbd1986bc	-0.03748201
36	0xbe8bcb74	-0.2730366
37	0xbd9fe6d6	-0.078077
38	0x3d9efff4	0.07763663
39	0xbdcc1a6f	-0.09965979
40	0xbe69184e	-0.22763178
41	0x3d9fa40a	0.0779496
42	0x3ca7b5a7	0.02047236
43	0xbe1e88f4	-0.15481931
44	0x3d566a12	0.05234725
45	0xbe34307b	-0.17596619
46	0xbe01b482	-0.12666515
47	0xbe817e42	-0.2529164
48	0x3dcb7de5	0.09936122
49	0x3e1fe1a7	0.15613423
50	0xbd9e4999	-0.077288814
51	0x3d7837ce	0.060600094
52	0x3cd79032	0.026313875
53	0xbe2f405f	-0.171144
54	0xbda571ee	-0.08078371
55	0xbdc685ec	-0.09693512
56	0xbe6c3b1f	-0.23069428
57	0xbe8a5dcc	-0.27024686
58	0xbd8260ec	-0.06366143
59	0x3d1a28d3	0.03763659
60	0xbd84c7fd	-0.06483457
61	0xbe4d920a	-0.2007524
62	0xbc0612d0	-0.008183196
63	0x3d65c8c9	0.056099687
64	0x3c6641c2	0.014053764
65	0xbd10b905	-0.0353327
66	0xbcd71872	-0.026256774
67	0xbdd30a70	-0.10304725
68	0xbd3e2786	-0.04642441
69	0x3e428e45	0.18999584
70	0x3d6dde84	0.058073536
71	0xbe26fd3a	-0.16307536
72	0xbde259a8	-0.11052257
73	0x3c5b962c	0.013402503
74	0x3d235133	0.03987236
75	0x3dcffceb	0.10155662
76	0xbbc31b23	-0.0059541627
77	0x3d6fc4b7	0.05853721
78	0xbce2ec31	-0.027700515
79	0xbe0e18a7	-0.13876592
80	0x3d8576cf	0.065168016
81	0x3daee07d	0.085389115
82	0xbd07ccc7	-0.033154275
83	0xbd53d594	-0.051717356
84	0xbdf9744c	-0.12180385
85	0xbcb7f253	-0.022454416
86	0xbe085d9a	-0.13316956
87	0x3d879b9c	0.06621477
88	0x3db5f8e8	0.08885366
89	0xbda6c016	-0.08142106
90	0xbc4bbf86	-0.012435799
91	0xbd602796	-0.054725252
92	0xbc9177cd	-0.01775732
93	0x3d6bf0e5	0.05760278
94	0x3d941ef6	0.07232468
95	0xbcf0a4c6	-0.029375445
96	0xbdc7a9d7	-0.09749191
97	0x3aa49055	0.0012555221
98	0xbdfab5db	-0.122417174
99	0xbd13336c	-0.03593771
100	0x3df272cc	0.11838302
101	0x3bdadeb7	0.0066793817
102	0x3dbd8475	0.0925378
103	0xbcb9e5b8	-0.022692546
104	0xbda2b4b3	-0.07944622
105	0xbc741be5	-0.014899229
106	0xbd6ddd87	-0.058072593
107	0xbe92ba66	-0.28657836
108	0x3d6be1d2	0.057588406
109	0x3d0f9c85	0.035061378
110	0xbce5577b	-0.027995816
111	0x3c9fd8ac	0.019512497
112	0xbe0b2464	-0.135881
113	0xbdd29eb1	-0.10284174
114	0xbe03fd4f	-0.12889598
115	0xbc91503b	-0.017738452
116	0xbdec8ae5	-0.115499295
117	0x3baf16fc	0.005343316
118	0x3d04b50e	0.03239923
119	0xbe650342	-0.22364524
120	0xbca2082b	-0.019779285
121	0xbd575957	-0.052575435
122	0xbda56762	-0.08076359
123	0x3bc592f2	0.00602948
124	0xbe28690f	-0.16446327
125	0xbd5b31eb	-0.053514402
126	0xbdedfdaa	-0.11620648
127	0x3d9900a9	0.07470829

output.weight f4 [4, 128]
0	0xbbe16455	-0.0068784156
1	0xbda2f493	-0.07956805
2	0xbfa93d78	-1.3221884
3	0xbe7d4064	-0.24731594
4	0x3d401b82	0.046901233
5	0xbf79f7c6	-0.976437
6	0x3db5d602	0.088787094
7	0xbe8641aa	-0.26221973
8	0xbf0ec3e7	-0.55767673
9	0xbd6ac527	-0.057316925
10	0x3fa06673	1.2531265
11	0xbe2f4e27	-0.17119657
12	0x3e0fe66a	0.1405274
13	0xbccffa19	-0.02538781
14	0x3f018e4c	0.5060775
15	0xbf859fd2	-1.0439398
16	0xbe89c409	-0.26907375
17	0x3e0a7823	0.13522391
18	0xbe3a137d	-0.18171497
19	0xbeded105	-0.43518844
20	0x3e3c670a	0.18398681
21	0xbe2d76a1	-0.16939785
22	0xbd3ecc23	-0.0465814
23	0x3f36b7cf	0.7137422
24	0x3ed93d86	0.4242975
25	0x3f956e6f	1.1674327
26	0x3f4a846b	0.79108304
27	0xbeded06b	-0.43518385
28	0xbe43b5d8	-0.19112337
29	0x3fc8430b	1.564546
30	0x3f325286	0.6965717
31	0x3c306d29	0.010768213
32	0x3f147ee5	0.58006126
33	0xbf3eb369	-0.7449251
34	0x3f30951e	0.68977535
35	0x3e2eac61	0.17057945
36	0x3f7e1ee9	0.99265915
37	0x3ed0be20	0.40770054
38	0xbd7551df	-0.05989253
39	0xbd546b5c	-0.0518602
40	0xbf52bd11	-0.8231974
41	0xbdb8bfab	-0.09020933
42	0xbc0c66b0	-0.0085694045
43	0x3fa9f8f7	1.3279103
44	0x3ddc0669	0.1074341
45	0xbf517e5a	-0.8183342
46	0xbe117694	-0.1420539
47	0xbe9cb25f	-0.30604836
48	0xbdc15d52	-0.094416276
49	0x3f612dbb	0.87960404
50	0xbc38ea6b	-0.011286358
51	0xbdca981f	-0.09892296
52	0xbda2266d	-0.079174854
53	0x3f0a27fc	0.5396726
54	0x3f1fe5d9	0.62460095
55	0x3f81dc51	1.014536
56	0x3c7bb6bd	0.015363392
57	0x3e5f8e8f	0.21831726
58	0x3c0e03c3	0.008667889
59	0xbeabb564	-0.33536828
60	0xbf9f75d1	-1.245783
61	0xbf14fb3f	-0.5819587
62	0xbf39ec85	-0.72626525
63	0x3eaee428	0.34158444
64	0xbf14b478	-0.58087873
65	0x3e9e6a1c	0.3094033
66	0x3ebda959	0.37043265
67	0xbee24bc9	-0.44198444
68	0xbe31e117	-0.17371021
69	0x3fe983b7	1.8243321
70	0x3ede1ad7	0.43379852
71	0x3f19a9e4	0.6002486
72	0x3e00a43b	0.12562649
73	0x3f12f113	0.573991
74	0xbf40a7d2	-0.75256073
75	0xbdc63ff5	-0.096801676
76	0x3f0f13f7	0.5588984
77	0x3f1e1ddf	0.6176433
78	0xbe649446	-0.22322187
79	0xbce2b08e	-0.027672078
80	0xbf1cd881	-0.6126786
81	0x3fbb407c	1.4629054
82	0xbe869f4e	-0.26293415
83	0xbee86f2f	-0.45397326
84	0xbe29d9f3	-0.16587047
85	0xbcb1ecff	-0.021719454
86	0xbdbd5912	-0.092455044
87	0xbc4b1bdd	-0.01239678
88	0x3d3cf860	0.046135306
89	0xbf30960a	-0.6897894
90	0x3db2730d	0.087133504
91	0x3fec61f1	1.8467389
92	0xbe9a1509	-0.30094174
93	0x3d5fb288	0.05461362
94	0xbf6c1b8c	-0.92229533
95	0x401597e3	2.3373954
96	0xbee62144	-0.44947255
97	0xbdb73424	-0.08945492
98	0x3ff0234b	1.876077
99	0x3e4845a7	0.1955782
100	0x3e2b9b45	0.1675845
101	0x3e1e7703	0.15475087
102	0xbaf79686	-0.0018889464
103	0xbeb7a4a6	-0.35867804
104	0xbcc5306a	-0.024070937
105	0xbf09f359	-0.53886944
106	0xbe59f141	-0.21283437
107	0xbed16ffc	-0.4090575
108	0x3e1ece1e	0.15508315
109	0xbf062cce	-0.52412117
110	0xbed39a89	-0.41328838
111	0xbd797c3e	-0.060909502
112	0xbf05b455	-0.5222829
113	0x3ed29d6d	0.4113573
114	0x3fad6136	1.3545291
115	0x3fa6e3a3	1.3038219
116	0x3ed73668	0.42033696
117	0xbf014c8e	-0.5050744
118	0xbf25b73f	-0.64732736
119	0xbf22bd8c	-0.63570476
120	0xbfb8c189	-1.4434062
121	0xbf04f190	-0.51931095
122	0xbf4d6df2	-0.8024589
123	0xbe0c606f	-0.13708661
124	0x3fa826a4	1.3136792
125	0xbe1305e9	-0.14357723
126	0xbe677133	-0.22601776
127	0xbdb144d8	-0.08655709
128	0x3ea13e56	0.3149287
129	0xbea6226a	-0.3244813
130	0x3f03ca69	0.5148073
131	0x3cf92d5b	0.030417135
132	0x3ee983e6	0.45608443
133	0xbe9ad978	-0.3024404
134	0x3f47f13c	0.7810247
135	0x3f22b547	0.6355786
136	0x3d0fcc94	0.03510721
137	0x3f0771de	0.5290812
138	0x3f07ae38	0.5300021
139	0x3f082ac2	0.53190243
140	0xbe96baca	-0.29439384
141	0xbe87f685	-0.26555267
142	0x3db78c9a	0.089623645
143	0x3f4edebd	0.8080862
144	0xbe87b3b0	-0.26504278
145	0x3e290e3f	0.1650934
146	0x3e061bbe	0.1309652
147	0x3f15f314	0.5857403
148	0x3ea85b04	0.3288194
149	0xbec394f4	-0.3819958
150	0xbe02a27b	-0.12757294
151	0x3db2985d	0.08720467
152	0xbd4ecda6	-0.05048909
153	0x3ea15e7f	0.31517407
154	0x3f1d5b3d	0.61467344
155	0xbef0ac98	-0.4700668
156	0xbe3f559a	-0.18684998
157	0xbed3baef	-0.41353557
158	0x3f32fc69	0.699164
159	0xbda623fe	-0.08112334
160	0x3e43ece8	0.19133341
161	0xbfc1ebff	-1.5150145
162	0x3d113c36	0.035457812
163	0x3fa5a78d	1.2941757
164	0x3ed6f847	0.41986296
165	0x3f87e762	1.0617487
166	0x3f187748	0.5955701
167	0xbe54fc86	-0.20799455
168	0xbe4b58fb	-0.19858162
169	0x3eb8934f	0.36049888
170	0xbcdc3936	-0.026882749
171	0xbf137649	-0.57602364
172	0xbdb60992	-0.08888544
173	0x3e8a400b	0.27001986
174	0xbe9585a5	-0.29203525
175	0xbe85ad68	-0.2610886
176	0xbe84480c	-0.25836217
177	0xbef39bb1	-0.4757972
178	0xbea3fe98	-0.32030177
179	0x3e28b953	0.16476946
180	0xbf081f73	-0.5317299
181	0x3c66e185	0.014091854
182	0x3f012edc	0.50462127
183	0x3d90fa1c	0.070789546
184	0x3f6b1e28	0.9184289
185	0xbf47bcbc	-0.7802236
186	0x3d1426c1	0.03616977
187	0xbf3c029c	-0.7344148
188	0x3e909c79	0.2824438
189	0x3e89de8d	0.26927605
190	0x3f4c1f39	0.7973514
191	0x3f243c97	0.6415495
192	0x3e26c3e8	0.1628567
193	0xbaa25e58	-0.0012387736
194	0xbd2b015a	-0.041749336
195	0xbe79ab16	-0.2438167
196	0xbd89e5e9	-0.06733305
197	0xbf530db6	-0.82442796
198	0x3dcda540	0.100412846
199	0xbea52a13	-0.32258663
200	0x3d391360	0.045184493
201	0xbd94f375	-0.07272998
202	0x3f8dccc6	1.1078117
203	0x3f422ad3	0.75846595
204	0x3f0bbd5e	0.54585826
205	0xbf42353d	-0.75862485
206	0xbf439415	-0.7639783
207	0x3f17eecb	0.59348744
208	0x3f49eda2	0.78878224
209	0xbe843432	-0.25821072
210	0x3e6f4007	0.23364268
211	0xbec15d97	-0.37766716
212	0x3e3f8811	0.18704249
213	0xbf3c0a03	-0.73452777
214	0x3eea4b4b	0.4576057
215	0x3e0d648b	0.13807885
216	0x3d0256fe	0.031821243
217	0xbf4a8806	-0.79113805
218	0xbf7e663a	-0.99374735
219	0x3e0cf610	0.1376574
220	0xbef58db4	-0.47959673
221	0xbf0b1a6d	-0.543372
222	0x3cd25740	0.02567637
223	0x3df583b6	0.119880125
224	0xbec93ba7	-0.39303324
225	0xbdc1da10	-0.0946542
226	0xbf206137	-0.6264834
227	0xbe62b28c	-0.22138423
228	0xbddb2fd3	-0.10702481
229	0x3ee4f78e	0.4472012
230	0x3f34270a	0.7037207
231	0x3ecdd3ae	0.4020056
232	0xbd136e5d	-0.035993923
233	0xbd9883f8	-0.07447046
234	0xbf21923b	-0.63113755
235	0xbf992a1d	-1.1965977
236	0x3d58e8f8	0.05295655
237	0x3d898230	0.067142844
238	0xbe1ff0a0	-0.15619135
239	0xbe6dcc4a	-0.23222461
240	0xbd1e2f94	-0.038619593
241	0xbf23b97c	-0.639549
242	0x3e58025e	0.21094653
243	0x3ee983b7	0.45608303
244	0x3ddc4bd0	0.107566476
245	0x3da7e0af	0.08197152
246	0x3e80d40b	0.25161776
247	0xbf2e747f	-0.6814651
248	0x3d97055f	0.07374071
249	0xbf03ab07	-0.5143284
250	0x3eac6c2e	0.33676285
251	0xbe0f89cd	-0.1401741
252	0xbe9a1364	-0.3009292
253	0x3f4d2048	0.8012738
254	0xbd8242f4	-0.063604265
255	0xbe37d0d8	-0.17950761

output.bias f4 [4]
0	0x3d72a94f	0.059243497
1	0xbd52494a	-0.051339425
2	0xbd5f38e5	-0.05449762
3	0x3e1b2a7c	0.15152925
